…
 kashgari.corpus import ChineseDailyNerCorpus\nfrom kashgari.tasks.labeling import BiLSTM_Model\n\ntrain_x, train_y = ChineseDailyNerCorpus.load_data('train')\ntest_x, test_y = ChineseDailyNerCorpus.load_data('test')\nvalid_x, valid_y = ChineseDailyNerCorpus.load_data('valid')\n\nmodel = BiLSTM_Model()\nmodel.fit(train_x, train_y, valid_x, valid_y, epochs=50)\n\n\"\"\"\n_________________________________________________________________\nLayer (type)                 Output Shape              Param #\n=================================================================\ninput (InputLayer)           (None, 97)                0\n_________________________________________________________________\nlayer_embedding (Embedding)  (None, 97, 100)           320600\n_________________________________________________________________\nlayer_blstm (Bidirectional)  (None, 97, 256)           235520\n_________________________________________________________________\nlayer_dropout (Dropout)      (None, 97, 256)           0\n_________________________________________________________________\nlayer_time_distributed (Time (None, 97, 8)             2056\n_________________________________________________________________\nactivation_7 (Activation)    (None, 97, 8)             0\n=================================================================\nTotal params: 558,176\nTrainable params: 558,176\nNon-trainable params: 0\n_________________________________________________________________\nTrain on 20864 samples, validate on 2318 samples\nEpoch 1/50\n20864/20864 [==============================] - 9s 417us/sample - loss: 0.2508 - acc: 0.9333 - val_loss: 0.1240 - val_acc: 0.960
…
