…
el_constructor.net import *\n```\n\n```\nmodel = Net()\n```\n\n```\nmodel\n```\n\n\n\n\n     constr Net\n\n\n\nNow we have model consructor, defoult setting as xresnet18. And we can get model after call it.\n\n```\nmodel.c_in\n```\n\n\n\n\n    3\n\n\n\n```\nmodel.c_out\n```\n\n\n\n\n    1000\n\n\n\n```\nmodel.stem_sizes\n```\n\n\n\n\n    [3, 32, 32, 64]\n\n\n\n```\nmodel.layers\n```\n\n\n\n\n    [2, 2, 2, 2]\n\n\n\n```\nmodel.expansion\n```\n\n\n\n\n    1\n\n\n\n```\nmodel()\n```\n\n\n\n\n    Sequential(\n      model Net\n      (stem): Sequential(\n        (conv_0): ConvLayer(\n          (conv): Conv2d(3, 32, kernel_size=(3, 3), stride=(2, 2), padding=(1, 1), bias=False)\n          (bn): BatchNorm2d(32, eps=1e-05, momentum=0.1, affine=True, track_running_stats=True)\n          (act_fn): ReLU(inplace=True)\n        )\n        (conv_1): ConvLayer(\n          (conv): Conv2d(32, 32, kernel_size=(3, 3), stride=(1, 1), padding=(1, 1), bias=False)\n          (bn): BatchNorm2d(32, eps=1e-05, momentum=0.1, affine=True, track_running_stats=True)\n          (act_fn): ReLU(inplace=True)\n        )\n        (conv_2): ConvLayer(\n          (conv): Conv2d(32, 64, kernel_size=(3, 3), stride=(1, 1), padding=(1, 1), bias=False)\n          (bn): BatchNorm2d(64, eps=1e-05, momentum=0.1, affine=True, track_running_stats=True)\n          (act_fn): ReLU(inplace=True)\n        )\n        (stem_pool): MaxPool2d(kernel_size=3, stride=2, padding=1, dilation=1, ceil_mode=False)\n      )\n      (body): Sequential(\n        (l_0): Sequential(\n          (bl_0): ResBlock(\n            (convs): Sequential(\n              (conv_0): ConvLayer(\n                (conv): Conv2d(64, 64, kernel_size=(3, 3), stride=(1, 1), padding=(1, 1), bias=False)\n                (bn): BatchNorm2d(64, eps=1e-05, momentum=0.1, affine=True, track_running_stats=True)\n                (act_fn): ReLU(inplace=True)\n              )\n              (conv_1): ConvLayer(\n                (conv): Conv2d(64, 64, kernel_size=(3, 3), stride=(1, 1), padding=(1, 1), bias=False)\n                (bn): BatchNorm2d(64, eps=1e-05, momentum=0.1, affine=True, track_running_stats=True)\n              )\n            )\n            (act_fn): ReLU(inplace=True)\n          )\n          (bl_1): ResBlock(\n            (convs): Sequential(\n              (conv_0): ConvLayer(\n                (conv): Conv2d(64, 64, kernel_size=(3, 3), stride=(1, 1), padding=(1, 1), bias=False)\n                (bn): BatchNorm2d(64, eps=1e-05, momentum=0.1, affine=True, track_running_stats=True)\n                (act_fn): ReLU(inplace=True)\n              )\n              (conv_1): ConvLayer(\n                (conv): Conv2d(64, 64, kernel_size=(3, 3), stride=(1, 1), padding=(1, 1), bias=False)\n                (bn): BatchNorm2d(64, eps=1e-05, momentum=0.1, affine=True, track_running_stats=True)\n              )\n            )\n            (act_fn): ReLU(inplace=True)\n          )\n        )\n        (l_1): Sequential(\n          (bl_0): ResBlock(\n            (convs): Sequential(\n              (conv_0): ConvLayer(\n                (conv): Conv2d(64, 128, kernel_size=(3, 3), stride=(2, 2), padding=(1, 1), bias=False)\n                (bn): BatchNorm2d(128, eps=1e-05, momentum=0.1, affine=True, track_running_stats=True)\n                (act_fn): ReLU(inplace=True)\n              )\n              (conv_1): ConvLayer(\n                (conv): Conv2d(128, 128, kernel_size=(3, 3), stride=(1, 1), padding=(1, 1), bias=False)\n                (bn): BatchNorm2d(128, eps=1e-05, momentum=0.1, affine=True, track_running_stats=True)\n              )\n            )\n            (pool): AvgPool2d(kernel_size=2, stride=2, padding=0)\n            (idconv): ConvLayer(\n              (conv): Conv2d(64, 128, kernel_size=(1, 1), stride=(1, 1), bias=False)\n              (bn): BatchNorm2d(128, eps=1e-05, momentum=0.1, affine=True, track_running_stats=True)\n            )\n            (act_fn): ReLU(inplace=True)\n          )\n          (bl_1): ResBlock(\n            (convs): Sequential(\n              (conv_0): ConvLayer(\n                (conv): Conv2d(128, 128, kernel_size=(3, 3), stride=(1, 1), padding=(1, 1), bias=False)\n                (bn): BatchNorm2d(128, eps=1e-05, momentum=0.1, affine=True, track_running_stats=True)\n                (act_fn): ReLU(inplace=True)\n              )\n              (conv_1): ConvLayer(\n                (conv): Conv2d(128, 128, kernel_size=(3, 3), stride=(1, 1), padding=(1, 1), bias=False)\n                (bn): BatchNorm2d(128, eps=1e-05, momentum=0.1, affine=True, track_running_stats=True)\n              )\n            )\n            (act_fn): ReLU(inplace=True)\n          )\n        )\n        (l_2): Sequential(\n          (bl_0): ResBlock(\n            (convs): Sequential(\n              (conv_0): ConvLayer(\n                (conv): Conv2d(128, 256, kernel_size=(3, 3), stride=(2, 2), padding=(1, 1), bias=False)\n                (bn): BatchNorm2d(256, eps=1e-05, momentum=0.1, affine=True, track_running_stats=True)\n                (act_fn): ReLU(inplace=True)\n              )\n              (conv_1): ConvLayer(\n                (conv): Conv2d(256, 256, kernel_size=(3, 3), stride=(1, 1), padding=(1, 1), bias=False)\n                (bn): BatchNorm2d(256, eps=1e-05, momentum=0.1, affine=True, track_running_stats=True)\n              )\n            )\n            (pool): AvgPool2d(kernel_size=2, stride=2, padding=0)\n            (idconv): ConvLayer(\n              (conv): Conv2d(128, 256, kernel_size=(1, 1), stride=(1, 1), bias=False)\n              (bn): BatchNorm2d(256, eps=1e-05, momentum=0.1, affine=True, track_running_stats=True)\n            )\n            (act_fn): ReLU(inplace=True)\n          )\n          (bl_1): ResBlock(\n            (convs): Sequential(\n              (conv_0): ConvLayer(\n                (conv): Conv2d(256, 256, kernel_size=(3, 3), stride=(1, 1), padding=(1, 1), bias=False)\n                (bn): BatchNorm2d(256, eps=1e-05, momentum=0.1, affine=True, track_running_stats=True)\n                (act_fn): ReLU(inplace=True)\n              )\n              (conv_1): ConvLayer(\n                (conv): Conv2d(256, 256, kernel_size=(3, 3), stride=(1, 1), padding=(1, 1), bias=False)\n                (bn): BatchNorm2d(256, eps=1e-05, momentum=0.1, affine=True, track_running_stats=True)\n              )\n            )\n            (act_fn): ReLU(inplace=True)\n          )\n        )\n        (l_3): Sequential(\n          (bl_0): ResBlock(\n            (convs): Sequential(\n              (conv_0): ConvLayer(\n                (conv): Conv2d(256, 512, kernel_size=(3, 3), stride=(2, 2), padding=(1, 1), bias=False)\n                (bn): BatchNorm2d(512, eps=1e-05, momentum=0.1, affine=True, track_running_stats=True)\n                (act_fn): ReLU(inplace=True)\n              )\n              (conv_1): ConvLayer(\n                (conv): Conv2d(512, 512, kernel_size=(3, 3), stride=(1, 1), padding=(1, 1), bias=False)\n                (bn): BatchNorm2d(512, eps=1e-05, momentum=0.1, affine=True, track_running_stats=True)\n              )\n            )\n            (pool): AvgPool2d(kernel_size=2, stride=2, padding=0)\n            (idconv): ConvLayer(\n              (conv): Conv2d(256, 512, kernel_size=(1, 1), stride=(1, 1), bias=False)\n              (bn): BatchNorm2d(512, eps=1e-05, momentum=0.1, affine=True, track_running_stats=True)\n            )\n            (act_fn): ReLU(inplace=True)\n          )\n          (bl_1): ResBlock(\n            (convs): Sequential(\n              (conv_0): ConvLayer(\n                (conv): Conv2d(512, 512, kernel_size=(3, 3), stride=(1, 1), padding=(1, 1), bias=False)\n                (bn): BatchNorm2d(512, eps=1e-05, momentum=0.1, affine=True, track_running_stats=True)\n                (act_fn): ReLU(inplace=True)\n              )\n              (conv_1): ConvLayer(\n                (conv): Conv2d(512, 512, kernel_size=(3, 3), stride=(1, 1), padding=(1, 1), bias=False)\n                (bn): BatchNorm2d(512, eps=1e-05, momentum=0.1, affine=True, track_running_stats=True)\n              )\n            )\n            (act_fn): ReLU(inplace=True)\n          )\n        )\n      )\n      (head): Sequential(\n        (pool): AdaptiveAvgPool2d(output_size=1)\n        (flat): Flatten()\n        (fc): Linear(in_features=512, out_features=1000, bias=True)\n      )\n    )\n\n\n\nIf you want to change model, just change constructor parameters.  \nLets create xresnet50.\n\n```\nmodel.expansion = 4\nmodel.layers = [3,4,6,3]\n```\n\nNow we can look at model body and if we call constructor - we have pytorch model!\n\n```\nmodel.body\n```\n\n\n\n\n    Sequential(\n      (l_0): Sequential(\n        (bl_0): ResBlock(\n          (convs): Sequential(\n            (conv_0): ConvLayer(\n              (conv): Conv2d(256, 64, kernel_size=(1, 1), stride=(1, 1), bias=False)\n              (bn): BatchNorm2d(64, eps=1e-05, momentum=0.1, affine=True, track_running_stats=True)\n              (act_fn): ReLU(inplace=True)\n            )\n            (conv_1): ConvLayer(\n              (conv): Conv2d(64, 64, kernel_size=(3, 3), stride=(1, 1), padding=(1, 1), bias=False)\n              (bn): BatchNorm2d(64, eps=1e-05, momentum=0.1, affine=True, track_running_stats=True)\n              (act_fn): ReLU(inplace=True)\n            )\n            (conv_2): ConvLayer(\n              (conv): Conv2d(64, 256, kernel_size=(1, 1), stride=(1, 1), bias=False)\n              (bn): BatchNorm2d(256, eps=1e-05, momentum=0.1, affine=True, track_running_stats=True)\n            )\n          )\n          (act_fn): ReLU(inplace=True)\n        )\n        (bl_1): ResBlock(\n          (convs): Sequential(\n            (conv_0): ConvLayer(\n              (conv): Conv2d(256, 64, kernel_size=(1, 1), stride=(1, 1), bias=False)\n              (bn): BatchNorm2d(64, eps=1e-05, momentum=0.1, affine=True, track_running_stats=True)\n              (act_fn): ReLU(inplace=True)\n            )\n            (conv_1): ConvLayer(\n              (conv): Conv2d(64, 64, kernel_size=(3, 3), stride=(1, 1), padding=(1, 1), bias=False)\n              (bn): BatchNorm2d(64, eps=1e-05, momentum=0.1, affine=True, track_running_stats=True)\n              (act_fn): ReLU(inplace=True)\n            )\n            (conv_2): ConvLayer(\n              (conv): Conv2d(64, 256, kernel_size=(1, 1), stride=(1, 1), bias=False)\n              (bn): BatchNorm2d(256, eps=1e-05, momentum=0.1, affine=True, track_running_stats=True)\n            )\n          )\n          (act_fn): ReLU(inplace=True)\n        )\n        (bl_2): ResBlock(\n          (convs): Sequential(\n            (conv_0): ConvLayer(\n              (conv): Conv2d(256, 64, kernel_size=(1, 1), stride=(1, 1), bias=False)\n              (bn): BatchNorm2d(64, eps=1e-05, momentum=0.1, affine=True, track_running_stats=True)\n              (act_fn): ReLU(inplace=True)\n            )\n            (conv_1): ConvLayer(\n              (conv): Conv2d(64, 64, kernel_size=(3, 3), stride=(1, 1), padding=(1, 1), bias=False)\n              (bn): BatchNorm2d(64, eps=1e-05, momentum=0.1, affine=True, track_running_stats=True)\n              (act_fn): ReLU(inplace=True)\n            )\n            (conv_2): ConvLayer(\n              (conv): Conv2d(64, 256, kernel_size=(1, 1), stride=(1, 1), bias=False)\n              (bn): BatchNorm2d(256, eps=1e-05, momentum=0.1, affine=True, track_running_stats=True)\n            )\n          )\n          (act_fn): ReLU(inplace=True)\n        )\n      )\n      (l_1): Sequential(\n        (bl_0): ResBlock(\n          (convs): Sequential(\n            (conv_0): ConvLayer(\n              (conv): Conv2d(256, 128, kernel_size=(1, 1), stride=(1, 1), bias=False)\n              (bn): BatchNorm2d(128, eps=1e-05, momentum=0.1, affine=True, track_running_stats=True)\n              (act_fn): ReLU(inplace=True)\n            )\n            (conv_1): ConvLayer(\n              (conv): Conv2d(128, 128, kernel_size=(3, 3), stride=(2, 2), padding=(1, 1), bias=False)\n              (bn): BatchNorm2d(128, eps=1e-05, momentum=0.1, affine=True, track_running_stats=True)\n              (act_fn): ReLU(inplace=True)\n            )\n            (conv_2): ConvLayer(\n              (conv): Conv2d(128, 512, kernel_size=(1, 1), stride=(1, 1), bias=False)\n              (bn): BatchNorm2d(512, eps=1e-05, momentum=0.1, affine=True, track_running_stats=True)\n            )\n          )\n          (pool): AvgPool2d(kernel_size=2, stride=2, padding=0)\n          (idconv): ConvLayer(\n            (conv): Conv2d(256, 512, kernel_size=(1, 1), stride=(1, 1), bias=False)\n            (bn): BatchNorm2d(512, eps=1e-05, momentum=0.1, affine=True, track_running_stats=True)\n          )\n          (act_fn): ReLU(inplace=True)\n        )\n        (bl_1): ResBlock(\n          (convs): Sequential(\n            (conv_0): ConvLayer(\n              (conv): Conv2d(512, 128, kernel_size=(1, 1), stride=(1, 1), bias=False)\n              (bn): BatchNorm2d(128, eps=1e-05, momentum=0.1, affine=True, track_running_stats=True)\n              (act_fn): ReLU(inplace=True)\n            )\n            (conv_1): ConvLayer(\n              (conv): Conv2d(128, 128, kernel_size=(3, 3), stride=(1, 1), padding=(1, 1), bias=False)\n              (bn): BatchNorm2d(128, eps=1e-05, momentum=0.1, affine=True, track_running_stats=True)\n              (act_fn): ReLU(inplace=True)\n            )\n            (conv_2): ConvLayer(\n              (conv): Conv2d(128, 512, kernel_size=(1, 1), stride=(1, 1), bias=False)\n              (bn): BatchNorm2d(512, eps=1e-05, momentum=0.1, affine=True, track_running_stats=True)\n            )\n          )\n          (act_fn): ReLU(inplace=True)\n        )\n        (bl_2): ResBlock(\n          (convs): Sequential(\n            (conv_0): ConvLayer(\n              (conv): Conv2d(512, 128, kernel_size=(1, 1), stride=(1, 1), bias=False)\n              (bn): BatchNorm2d(128, eps=1e-05, momentum=0.1, affine=True, track_running_stats=True)\n              (act_fn): ReLU(inplace=True)\n            )\n            (conv_1): ConvLayer(\n              (conv): Conv2d(128, 128, kernel_size=(3, 3), stride=(1, 1), padding=(1, 1), bias=False)\n              (bn): BatchNorm2d(128, eps=1e-05, momentum=0.1, affine=True, track_running_stats=True)\n              (act_fn): ReLU(inplace=True)\n            )\n            (conv_2): ConvLayer(\n              (conv): Conv2d(128, 512, kernel_size=(1, 1), stride=(1, 1), bias=False)\n              (bn): BatchNorm2d(512, eps=1e-05, momentum=0.1, affine=True, track_running_stats=True)\n            )\n          )\n          (act_fn): ReLU(inplace=True)\n        )\n        (bl_3): ResBlock(\n          (convs): Sequential(\n            (conv_0): ConvLayer(\n              (conv): Conv2d(512, 128, kernel_size=(1, 1), stride=(1, 1), bias=False)\n              (bn): BatchNorm2d(128, eps=1e-05, momentum=0.1, affine=True, track_running_stats=True)\n              (act_fn): ReLU(inplace=True)\n            )\n            (conv_1): ConvLayer(\n              (conv): Conv2d(128, 128, kernel_size=(3, 3), stride=(1, 1), padding=(1, 1), bias=False)\n              (bn): BatchNorm2d(128, eps=1e-05, momentum=0.1, affine=True, track_running_stats=True)\n              (act_fn): ReLU(inplace=True)\n            )\n            (conv_2): ConvLayer(\n              (conv): Conv2d(128, 512, kernel_size=(1, 1), stride=(1, 1), bias=False)\n              (bn): BatchNorm2d(512, eps=1e-05, momentum=0.1, affine=True, track_running_stats=True)\n            )\n          )\n          (act_fn): ReLU(inplace=True)\n        )\n      )\n      (l_2): Sequential(\n        (bl_0): ResBlock(\n          (convs): Sequential(\n            (conv_0): ConvLayer(\n              (conv): Conv2d(512, 256, kernel_size=(1, 1), stride=(1, 1), bias=False)\n              (bn): BatchNorm2d(256, eps=1e-05, momentum=0.1, affine=True, track_running_stats=True)\n              (act_fn): ReLU(inplace=True)\n            )\n            (conv_1): ConvLayer(\n              (conv): Conv2d(256, 256, kernel_size=(3, 3), stride=(2, 2), padding=(1, 1), bias=False)\n              (bn): BatchNorm2d(256, eps=1e-05, momentum=0.1, affine=True, track_running_stats=True)\n              (act_fn): ReLU(inplace=True)\n            )\n            (conv_2): ConvLayer(\n              (conv): Conv2d(256, 1024, kernel_size=(1, 1), stride=(1, 1), bias=False)\n              (bn): BatchNorm2d(1024, eps=1e-05, momentum=0.1, affine=True, track_running_stats=True)\n            )\n          )\n          (pool): AvgPool2d(kernel_size=2, stride=2, padding=0)\n          (idconv): ConvLayer(\n            (conv): Conv2d(512, 1024, kernel_size=(1, 1), stride=(1, 1), bias=False)\n            (bn): BatchNorm2d(1024, eps=1e-05, momentum=0.1, affine=True, track_running_stats=True)\n          )\n          (act_fn): ReLU(inplace=True)\n        )\n        (bl_1): ResBlock(\n          (convs): Sequential(\n            (conv_0): ConvLayer(\n              (conv): Conv2d(1024, 256, kernel_size=(1, 1), stride=(1, 1), bias=False)\n              (bn): BatchNorm2d(256, eps=1e-05, momentum=0.1, affine=True, track_running_stats=True)\n              (act_fn): ReLU(inplace=True)\n            )\n            (conv_1): ConvLayer(\n              (conv): Conv2d(256, 256, kernel_size=(3, 3), stride=(1, 1), padding=(1, 1), bias=False)\n              (bn): BatchNorm2d(256, eps=1e-05, momentum=0.1, affine=True, track_running_stats=True)\n              (act_fn): ReLU(inplace=True)\n            )\n            (conv_2): ConvLayer(\n              (conv): Conv2d(256, 1024, kernel_size=(1, 1), stride=(1, 1), bias=False)\n              (bn): BatchNorm2d(1024, eps=1e-05, momentum=0.1, affine=True, track_running_stats=True)\n            )\n          )\n          (act_fn): ReLU(inplace=True)\n        )\n        (bl_2): ResBlock(\n          (convs): Sequential(\n            (conv_0): ConvLayer(\n              (conv): Conv2d(1024, 256, kernel_size=(1, 1), stride=(1, 1), bias=False)\n              (bn): BatchNorm2d(256, eps=1e-05, momentum=0.1, affine=True, track_running_stats=True)\n              (act_fn): ReLU(inplace=True)\n            )\n            (conv_1): ConvLayer(\n              (conv): Conv2d(256, 256, kernel_size=(3, 3), stride=(1, 1), padding=(1, 1), bias=False)\n              (bn): BatchNorm2d(256, eps=1e-05, momentum=0.1, affine=True, track_running_stats=True)\n              (act_fn): ReLU(inplace=True)\n            )\n            (conv_2): ConvLayer(\n              (conv): Conv2d(256, 1024, kernel_size=(1, 1), stride=(1, 1), bias=False)\n              (bn): BatchNorm2d(1024, eps=1e-05, momentum=0.1, affine=True, track_running_stats=True)\n            )\n          )\n          (act_fn): ReLU(inplace=True)\n        )\n        (bl_3): ResBlock(\n          (convs): Sequential(\n            (conv_0): ConvLayer(\n              (conv): Conv2d(1024, 256, kernel_size=(1, 1), stride=(1, 1), bias=False)\n              (bn): BatchNorm2d(256, eps=1e-05, momentum=0.1, affine=True, track_running_stats=True)\n              (act_fn): ReLU(inplace=True)\n            )\n            (conv_1): ConvLayer(\n              (conv): Conv2d(256, 256, kernel_size=(3, 3), stride=(1, 1), padding=(1, 1), bias=False)\n              (bn): BatchNorm2d(256, eps=1e-05, momentum=0.1, affine=True, track_running_stats=True)\n              (act_fn): ReLU(inplace=True)\n            )\n            (conv_2): ConvLayer(\n              (conv): Conv2d(256, 1024, kernel_size=(1, 1), stride=(1, 1), bias=False)\n              (bn): BatchNorm2d(1024, eps=1e-05, momentum=0.1, affine=True, track_running_stats=True)\n            )\n          )\n          (act_fn): ReLU(inplace=True)\n        )\n        (bl_4): ResBlock(\n          (convs): Sequential(\n            (conv_0): ConvLayer(\n              (conv): Conv2d(1024, 256, kernel_size=(1, 1), stride=(1, 1), bias=False)\n              (bn): BatchNorm2d(256, eps=1e-05, momentum=0.1, affine=True, track_running_stats=True)\n              (act_fn): ReLU(inplace=True)\n            )\n            (conv_1): ConvLayer(\n              (conv): Conv2d(256, 256, kernel_size=(3, 3), stride=(1, 1), padding=(1, 1), bias=False)\n              (bn): BatchNorm2d(256, eps=1e-05, momentum=0.1, affine=True, track_running_stats=True)\n              (act_fn): ReLU(inplace=True)\n            )\n            (conv_2): ConvLayer(\n              (conv): Conv2d(256, 1024, kernel_size=(1, 1), stride=(1, 1), bias=False)\n              (bn): BatchNorm2d(1024, eps=1e-05, momentum=0.1, affine=True, track_running_stats=True)\n            )\n          )\n          (act_fn): ReLU(inplace=True)\n        )\n        (bl_5): ResBlock(\n          (convs): Sequential(\n            (conv_0): ConvLayer(\n              (conv): Conv2d(1024, 256, kernel_size=(1, 1), stride=(1, 1), bias=False)\n              (bn): BatchNorm2d(256, eps=1e-05, momentum=0.1, affine=True, track_running_stats=True)\n              (act_fn): ReLU(inplace=True)\n            )\n            (conv_1): ConvLayer(\n              (conv): Conv2d(256, 256, kernel_size=(3, 3), stride=(1, 1), padding=(1, 1), bias=False)\n              (bn): BatchNorm2d(256, eps=1e-05, momentum=0.1, affine=True, track_running_stats=True)\n              (act_fn): ReLU(inplace=True)\n            )\n            (conv_2): ConvLayer(\n              (conv): Conv2d(256, 1024, kernel_size=(1, 1), stride=(1, 1), bias=False)\n              (bn): BatchNorm2d(1024, eps=1e-05, momentum=0.1, affine=True, track_running_stats=True)\n            )\n          )\n          (act_fn): ReLU(inplace=True)\n        )\n      )\n      (l_3): Sequential(\n        (bl_0): ResBlock(\n          (convs): Sequential(\n            (conv_0): ConvLayer(\n              (conv): Conv2d(1024, 512, kernel_size=(1, 1), stride=(1, 1), bias=False)\n              (bn): BatchNorm2d(512, eps=1e-05, momentum=0.1, affine=True, track_running_stats=True)\n              (act_fn): ReLU(inplace=True)\n            )\n            (conv_1): ConvLayer(\n              (conv): Conv2d(512, 512, kernel_size=(3, 3), stride=(2, 2), padding=(1, 1), bias=False)\n              (bn): BatchNorm2d(512, eps=1e-05, momentum=0.1, affine=True, track_running_stats=True)\n              (act_fn): ReLU(inplace=True)\n            )\n            (conv_2): ConvLayer(\n              (conv): Conv2d(512, 2048, kernel_size=(1, 1), stride=(1, 1), bias=False)\n              (bn): BatchNorm2d(2048, eps=1e-05, momentum=0.1, affine=True, track_running_stats=True)\n            )\n          )\n          (pool): AvgPool2d(kernel_size=2, stride=2, padding=0)\n          (idconv): ConvLayer(\n            (conv): Conv2d(1024, 2048, kernel_size=(1, 1), stride=(1, 1), bias=False)\n            (bn): BatchNorm2d(2048, eps=1e-05, momentum=0.1, affine=True, track_running_stats=True)\n          )\n          (act_fn): ReLU(inplace=True)\n        )\n        (bl_1): ResBlock(\n          (convs): Sequential(\n            (conv_0): ConvLayer(\n              (conv): Conv2d(2048, 512, kernel_size=(1, 1), stride=(1, 1), bias=False)\n              (bn): BatchNorm2d(512, eps=1e-05, momentum=0.1, affine=True, track_running_stats=True)\n              (act_fn): ReLU(inplace=True)\n            )\n            (conv_1): ConvLayer(\n              (conv): Conv2d(512, 512, kernel_size=(3, 3), stride=(1, 1), padding=(1, 1), bias=False)\n              (bn): BatchNorm2d(512, eps=1e-05, momentum=0.1, affine=True, track_running_stats=True)\n              (act_fn): ReLU(inplace=True)\n            )\n            (conv_2): ConvLayer(\n              (conv): Conv2d(512, 2048, kernel_size=(1, 1), stride=(1, 1), bias=False)\n              (bn): BatchNorm2d(2048, eps=1e-05, momentum=0.1, affine=True, track_running_stats=True)\n            )\n          )\n          (act_fn): ReLU(inplace=True)\n        )\n        (bl_2): ResBlock(\n          (convs): Sequential(\n            (conv_0): ConvLayer(\n              (conv): Conv2d(2048, 512, kernel_size=(1, 1), stride=(1, 1), bias=False)\n              (bn): BatchNorm2d(512, eps=1e-05, momentum=0.1, affine=True, track_running_stats=True)\n              (act_fn): ReLU(inplace=True)\n            )\n            (conv_1): ConvLayer(\n              (conv): Conv2d(512, 512, kernel_size=(3, 3), stride=(1, 1), padding=(1, 1), bias=False)\n              (bn): BatchNorm2d(512, eps=1e-05, momentum=0.1, affine=True, track_running_stats=True)\n              (act_fn): ReLU(inplace=True)\n            )\n            (conv_2): ConvLayer(\n              (conv): Conv2d(512, 2048, kernel_size=(1, 1), stride=(1, 1), bias=False)\n              (bn): BatchNorm2d(2048, eps=1e-05, momentum=0.1, affine=True, track_running_stats=True)\n            )\n          )\n          (act_fn): ReLU(inplace=True)\n        )\n      )\n    )\n\n\n\n```\nmodel.block_szs\n```\n\n\n\n\n    [16, 64, 128, 256, 512]\n\n\n\n## More modification.\n\nMain purpose of this module - fast and easy modify model.\nAnd here is the link to more modification to beat Imagenette leaderboard w
…
.fast.ai/t/meet-mish-new-activation-function-possible-successor-to-relu\n\n```\nclass Mish(nn.Module):\n    def __init__(self):\n        super().__init__()\n\n    def forward(self, x):  \n        return x *( torch.tanh(F.softplus(x))) \n```\n\n```\nmxresnet.expansion = 4\nmxresnet.layers = [3,4,6,3]\nmxresnet.act_fn = Mish()\nmxresnet.name = 'mxresnet50'\n```\n\nNow we have mxresnet50 constructor.  \nWe can inspect some parts of it.  \nAnd after call it we got model.\n\n```\nmxresnet\n```\n\n\n\n\n     constr mxresnet50\n\n\n\n```\nmxresnet.stem.conv_1\n```\n\n\n\n\n    ConvLayer(\n      (conv): Conv2d(32, 64, kernel_size=(3, 3), stride=(1, 1), padding=(1, 1), bias=False)\n      (bn): BatchNorm2d(64, eps=1e-05, momentum=0.1, affine=True, track_running_stats=True)\n      (act_fn): Mish()\n    )\n\n\n\n```\nmxresnet.body.l_0.bl_0\n```\n\n\n\n\n    ResBlock(\n      (convs): Sequential(\n        (conv_0): ConvLayer(\n          (conv): Conv2d(64, 64, kernel_size=(1, 1), stride=(1, 1), bias=False)\n          (bn): BatchNorm2d(64, eps=1e-05, momentum=0.1, affine=True, track_running_stats=True)\n          (act_fn): Mish()\n        )\n        (conv_1): ConvLayer(\n          (conv): Conv2d(64, 64, kernel_size=(3, 3), stride=(1, 1), padding=(1, 1), bias=False)\n          (bn): BatchNorm2d(64, eps=1e-05, momentum=0.1, affine=True, track_running_stats=True)\n          (act_fn): Mish()\n        )\n        (conv_2): ConvLayer(\n          (conv): Conv2d(64, 256, kernel_size=(1, 1), stride=(1, 1), bias=False)\n          (bn): BatchNorm2d(256, eps=1e-05, momentum=0.1, affine=True, track_running_stats=True)\n        )\n      )\n      (idconv): ConvLayer(\n        (conv): Conv2d(64, 256, kernel_size=(1, 1), stride=(1, 1), bias=False)\n        (bn): BatchNorm2d(256, eps=1e-05, momentum=0.1, affine=True, track_running_stats=True)\n      )\n      (act_fn): Mish()\n    )\n\n\n\nNow lets change Resblock. NewResBlock (stiil not own name yet) is in lib from version 0.1.0\n\n```\nmxresnet.block = NewResBlock\n```\n\nThat all. Let see what we have.\n\n```\nmxresnet.body.l_1.bl_0\n```\n\n\n\n\n    NewResBlock(\n      (reduce): AvgPool2d(kernel_size=2, stride=2, padding=0)\n      (convs): Sequential(\n        (conv_0): ConvLayer(\n          (conv): Conv2d(256, 128, kernel_size=(1, 1), stride=(1, 1), bias=False)\n          (bn): BatchNorm2d(128, eps=1e-05, momentum=0.1, affine=True, track_running_stats=True)\n          (act_fn): Mish()\n        )\n        (conv_1): ConvLayer(\n          (conv): Conv2d(128, 128, kernel_size=(3, 3), stride=(1, 1), padding=(1, 1), bias=False)\n          (bn): BatchNorm2d(128, eps=1e-05, momentum=0.1, affine=True, track_running_stats=True)\n          (act_fn): Mish()\n        )\n        (conv_2): ConvLayer(\n          (conv): Conv2d(128, 512, kernel_size=(1, 1), stride=(1, 1), bias=False)\n          (bn): BatchNorm2d(512, eps=1e-05, momentum=0.1, affine=True, track_running_stats=True)\n        )\n      )\n      (idconv): ConvLayer(\n        (conv): Conv2d(256, 512, kernel_size=(1, 1), stride=(1, 1), bias=False)\n        (bn): BatchNorm2d(512, eps=1e-05, momentum=0.1, affine=True, track_running_stats=True)\n      )\n      (merge): Mish()\n    )\n\n\n\n# Classic way\n\nUsual way to get model - call constructor with parametrs.\n\n```\nfrom model_constructor.constructor import *\n```\n\nDefault is resnet18.\n\n```\nmodel = Net()\n```\n\nYou cant modify model after call constructor, so define model with parameters.   \nFor example, res
…
ge activation funtions, different stems, batchnorm and activation order etc. In v2 much powerfull realisation.\n\n```\nfrom model_constructor.xresnet import *\n```\n\n```\nmodel = xresnet50()\n```\n\n## Some examples.\n\nWe can experiment with models by changing some parts of model. Here only base functionality, but it can be easily extanded.\n\nHere is some examples:\n\n\n### Custom stem\n\nStem with 3 conv layers\n\n```\nmodel = Net(stem=partial(Stem, stem_sizes=[32, 32]))\n```\n\n```\nmodel.stem\n```\n\n\n\n\n    Stem(\n      sizes: [3, 32, 32, 64]\n      (conv_0): ConvLayer(\n        (conv): Conv2d(3, 32, kernel_size=(3, 3), stride=(2, 2), padding=(1, 1), bias=False)\n        (bn): BatchNorm2d(32, eps=1e-05, momentum=0.1, affine=True, track_running_stats=True)\n        (act_fn): ReLU(inplace=True)\n      )\n      (conv_1): ConvLayer(\n        (conv): Conv2d(32, 32, kernel_size=(3, 3), stride=(1, 1), padding=(1, 1), bias=False)\n        (bn): BatchNorm2d(32, eps=1e-05, momentum=0.1, affine=True, track_running_stats=True)\n        (act_fn): ReLU(inplace=True)\n      )\n      (conv_2): ConvLayer(\n        (conv): Conv2d(32, 64, kernel_size=(3, 3), stride=(1, 1), padding=(1, 1), bias=False)\n        (bn): BatchNorm2d(64, eps=1e-05, momentum=0.1, affine=True, track_running_stats=True)\n        (act_fn): ReLU(inplace=True)\n      )\n      (pool): MaxPool2d(kernel_size=3, stride=2, padding=1, dilation=1, ceil_mode=False)\n    )\n\n\n\n```\nmodel = Net(stem_sizes=[32, 64])\n```\n\n```\nmodel.stem\n```\n\n\n\n\n    Stem(\n      sizes: [3, 32, 64, 64]\n      (conv_0): ConvLayer(\n        (conv): Conv2d(3, 32, kernel_size=(3, 3), stride=(2, 2), padding=(1, 1), bias=False)\n        (bn): BatchNorm2d(32, eps=1e-05, momentum=0.1, affine=True, track_running_stats=True)\n        (act_fn): ReLU(inplace=True)\n      )\n      (conv_1): ConvLayer(\n        (conv): Conv2d(32, 64, kernel_size=(3, 3), stride=(1, 1), padding=(1, 1), bias=False)\n        (bn): BatchNorm2d(64, eps=1e-05, momentum=0.1, affine=True, track_running_stats=True)\n        (act_fn): ReLU(inplace=True)\n      )\n      (conv_2): ConvLayer(\n        (conv): Conv2d(64, 64, kernel_size=(3, 3), stride=(1, 1), padding=(1, 1), bias=False)\n        (bn): BatchNorm2d(64, eps=1e-05, momentum=0.1, affine=True, track_running_stats=True)\n        (act_fn): ReLU(inplace=True)\n      )\n      (pool): MaxPool2d(kernel_size=3, stride=2, padding=1, dilation=1, ceil_mode=False)\n    )\n\n\n\n### Activation function before Normalization\n\n```\nmodel = Net(bn_1st=False)\n```\n\n```\nmodel.stem\n```\n\n\n\n\n    Stem(\n      sizes: [3, 64]\n      (conv_0): ConvLayer(\n        (conv): Conv2d(3, 64, kernel_size=(3, 3), stride=(2, 2), padding=(1, 1), bias=False)\n        (act_fn): ReLU(inplace=True)\n        (bn): BatchNorm2d(64, eps=1e-05, momentum=0.1, affine=True, track_running_stats=True)\n      )\n      (pool): MaxPool2d(kernel_size=3, stride=2, padding=1, dilation=1, ceil_mode=False)\n    )\n\n\n\n\n### Change activation function\n\n```\nnew_act_fn = nn.LeakyReLU(inplace=True)\n```\n\n```\nmodel = Net(act_fn=new_act_fn)\n```\n\n```\nmodel.stem\n```\n\n\n\n\n    Stem(\n      sizes: [3, 64]\n      (conv_0): ConvLayer(\n        (conv): Conv2d(3, 64, kernel_size=(3, 3), stride=(2, 2), padding=(1, 1), bias=False)\n        (bn): BatchNorm2d(64, eps=1e-05, momentum=0.1, affine=True, track_running_stats=True)\n        (act_fn): LeakyReLU(negative_slope=0.01, inplace=True)\n      )\n      (pool): MaxPool2d(kernel_size=3, stride=2, padding=1, dilation=1, ceil_mode=False)\n    )\n\n\n\n```\nmodel.body.layer_0.block_0\n```\n\n\n\n\n    BasicBlock(\n      (conv): Sequential(\n        (conv_0): ConvLayer(\n          (conv): Conv2d(64, 64, kernel_size=(3, 3), stride=(1, 1), padding=(1, 1), bias=False)\n          (bn): BatchNorm2d(64, eps=1e-05, momentum=0.1, affine=True, track_running_stats=True)\n          (act_fn): LeakyReLU(negative_slope=0.01, inplace=True)\n        )\n        (conv_1): ConvLayer(\n          (conv): Conv2d(64, 64, kernel_size=(3, 3), stride=(1, 1), padding=(1, 1), bias=False)\n          (bn): BatchNorm2d(64, eps=1e-05, momentum=0.1, affine=True, track_running_stats=True)\n        )\n      )\n      (merge): Noop()\n      (act_conn): LeakyReLU(negative_slope=0.01, inplace=True)\n    )\n\n\n\n\n", "description_content_type": "text/markdown", "docs_url": null, "download_url": "", "downloads": {"last_day": -1, "last_month": -1, "last_week": -1}, "home_page": "https://github.com/ayasyrev/model_construct
…
e model consructor, defoult setting as xresnet18. And we can get model after call it.</p>\n<pre><code>model.c_in\n</code></pre>\n<pre><code>3\n</code></pre>\n<pre><code>model.c_out\n</code></pre>\n<pre><code>1000\n</code></pre>\n<pre><code>model.stem_sizes\n</code></pre>\n<pre><code>[3, 32, 32, 64]\n</code></pre>\n<pre><code>model.layers\n</code></pre>\n<pre><code>[2, 2, 2, 2]\n</code></pre>\n<pre><code>model.expansion\n</code></pre>\n<pre><code>1\n</code></pre>\n<pre><code>model()\n</code></pre>\n<pre><code>Sequential(\n  model Net\n  (stem): Sequential(\n    (conv_0): ConvLayer(\n      (conv): Conv2d(3, 32, kernel_size=(3, 3), stride=(2, 2), padding=(1, 1), bias=False)\n      (bn): BatchNorm2d(32, eps=1e-05, momentum=0.1, affine=True, track_running_stats=True)\n      (act_fn): ReLU(inplace=True)\n    )\n    (conv_1): ConvLayer(\n      (conv): Conv2d(32, 32, kernel_size=(3, 3), stride=(1, 1), padding=(1, 1), bias=False)\n      (bn): BatchNorm2d(32, eps=1e-05, momentum=0.1, affine=True, track_running_stats=True)\n      (act_fn): ReLU(inplace=True)\n    )\n    (conv_2): ConvLayer(\n      (conv): Conv2d(32, 64, kernel_size=(3, 3), stride=(1, 1), padding=(1, 1), bias=False)\n      (bn): BatchNorm2d(64, eps=1e-05, momentum=0.1, affine=True, track_running_stats=True)\n      (act_fn): ReLU(inplace=True)\n    )\n    (stem_pool): MaxPool2d(kernel_size=3, stride=2, padding=1, dilation=1, ceil_mode=False)\n  )\n  (body): Sequential(\n    (l_0): Sequential(\n      (bl_0): ResBlock(\n        (convs): Sequential(\n          (conv_0): ConvLayer(\n            (conv): Conv2d(64, 64, kernel_size=(3, 3), stride=(1, 1), padding=(1, 1), bias=False)\n            (bn): BatchNorm2d(64, eps=1e-05, momentum=0.1, affine=True, track_running_stats=True)\n            (act_fn): ReLU(inplace=True)\n          )\n          (conv_1): ConvLayer(\n            (conv): Conv2d(64, 64, kernel_size=(3, 3), stride=(1, 1), padding=(1, 1), bias=False)\n            (bn): BatchNorm2d(64, eps=1e-05, momentum=0.1, affine=True, track_running_stats=True)\n          )\n        )\n        (act_fn): ReLU(inplace=True)\n      )\n      (bl_1): ResBlock(\n        (convs): Sequential(\n          (conv_0): ConvLayer(\n            (conv): Conv2d(64, 64, kernel_size=(3, 3), stride=(1, 1), padding=(1, 1), bias=False)\n            (bn): BatchNorm2d(64, eps=1e-05, momentum=0.1, affine=True, track_running_stats=True)\n            (act_fn): ReLU(inplace=True)\n          )\n          (conv_1): ConvLayer(\n            (conv): Conv2d(64, 64, kernel_size=(3, 3), stride=(1, 1), padding=(1, 1), bias=False)\n            (bn): BatchNorm2d(64, eps=1e-05, momentum=0.1, affine=True, track_running_stats=True)\n          )\n        )\n        (act_fn): ReLU(inplace=True)\n      )\n    )\n    (l_1): Sequential(\n      (bl_0): ResBlock(\n        (convs): Sequential(\n          (conv_0): ConvLayer(\n            (conv): Conv2d(64, 128, kernel_size=(3, 3), stride=(2, 2), padding=(1, 1), bias=False)\n            (bn): BatchNorm2d(128, eps=1e-05, momentum=0.1, affine=True, track_running_stats=True)\n            (act_fn): ReLU(inplace=True)\n          )\n          (conv_1): ConvLayer(\n            (conv): Conv2d(128, 128, kernel_size=(3, 3), stride=(1, 1), padding=(1, 1), bias=False)\n            (bn): BatchNorm2d(128, eps=1e-05, momentum=0.1, affine=True, track_running_stats=True)\n          )\n        )\n        (pool): AvgPool2d(kernel_size=2, stride=2, padding=0)\n        (idconv): ConvLayer(\n          (conv): Conv2d(64, 128, kernel_size=(1, 1), stride=(1, 1), bias=False)\n          (bn): BatchNorm2d(128, eps=1e-05, momentum=0.1, affine=True, track_running_stats=True)\n        )\n        (act_fn): ReLU(inplace=True)\n      )\n      (bl_1): ResBlock(\n        (convs): Sequential(\n          (conv_0): ConvLayer(\n            (conv): Conv2d(128, 128, kernel_size=(3, 3), stride=(1, 1), padding=(1, 1), bias=False)\n            (bn): BatchNorm2d(128, eps=1e-05, momentum=0.1, affine=True, track_running_stats=True)\n            (act_fn): ReLU(inplace=True)\n          )\n          (conv_1): ConvLayer(\n            (conv): Conv2d(128, 128, kernel_size=(3, 3), stride=(1, 1), padding=(1, 1), bias=False)\n            (bn): BatchNorm2d(128, eps=1e-05, momentum=0.1, affine=True, track_running_stats=True)\n          )\n        )\n        (act_fn): ReLU(inplace=True)\n      )\n    )\n    (l_2): Sequential(\n      (bl_0): ResBlock(\n        (convs): Sequential(\n          (conv_0): ConvLayer(\n            (conv): Conv2d(128, 256, kernel_size=(3, 3), stride=(2, 2), padding=(1, 1), bias=False)\n            (bn): BatchNorm2d(256, eps=1e-05, momentum=0.1, affine=True, track_running_stats=True)\n            (act_fn): ReLU(inplace=True)\n          )\n          (conv_1): ConvLayer(\n            (conv): Conv2d(256, 256, kernel_size=(3, 3), stride=(1, 1), padding=(1, 1), bias=False)\n            (bn): BatchNorm2d(256, eps=1e-05, momentum=0.1, affine=True, track_running_stats=True)\n          )\n        )\n        (pool): AvgPool2d(kernel_size=2, stride=2, padding=0)\n        (idconv): ConvLayer(\n          (conv): Conv2d(128, 256, kernel_size=(1, 1), stride=(1, 1), bias=False)\n          (bn): BatchNorm2d(256, eps=1e-05, momentum=0.1, affine=True, track_running_stats=True)\n        )\n        (act_fn): ReLU(inplace=True)\n      )\n      (bl_1): ResBlock(\n        (convs): Sequential(\n          (conv_0): ConvLayer(\n            (conv): Conv2d(256, 256, kernel_size=(3, 3), stride=(1, 1), padding=(1, 1), bias=False)\n            (bn): BatchNorm2d(256, eps=1e-05, momentum=0.1, affine=True, track_running_stats=True)\n            (act_fn): ReLU(inplace=True)\n          )\n          (conv_1): ConvLayer(\n            (conv): Conv2d(256, 256, kernel_size=(3, 3), stride=(1, 1), padding=(1, 1), bias=False)\n            (bn): BatchNorm2d(256, eps=1e-05, momentum=0.1, affine=True, track_running_stats=True)\n          )\n        )\n        (act_fn): ReLU(inplace=True)\n      )\n    )\n    (l_3): Sequential(\n      (bl_0): ResBlock(\n        (convs): Sequential(\n          (conv_0): ConvLayer(\n            (conv): Conv2d(256, 512, kernel_size=(3, 3), stride=(2, 2), padding=(1, 1), bias=False)\n            (bn): BatchNorm2d(512, eps=1e-05, momentum=0.1, affine=True, track_running_stats=True)\n            (act_fn): ReLU(inplace=True)\n          )\n          (conv_1): ConvLayer(\n            (conv): Conv2d(512, 512, kernel_size=(3, 3), stride=(1, 1), padding=(1, 1), bias=False)\n            (bn): BatchNorm2d(512, eps=1e-05, momentum=0.1, affine=True, track_running_stats=True)\n          )\n        )\n        (pool): AvgPool2d(kernel_size=2, stride=2, padding=0)\n        (idconv): ConvLayer(\n          (conv): Conv2d(256, 512, kernel_size=(1, 1), stride=(1, 1), bias=False)\n          (bn): BatchNorm2d(512, eps=1e-05, momentum=0.1, affine=True, track_running_stats=True)\n        )\n        (act_fn): ReLU(inplace=True)\n      )\n      (bl_1): ResBlock(\n        (convs): Sequential(\n          (conv_0): ConvLayer(\n            (conv): Conv2d(512, 512, kernel_size=(3, 3), stride=(1, 1), padding=(1, 1), bias=False)\n            (bn): BatchNorm2d(512, eps=1e-05, momentum=0.1, affine=True, track_running_stats=True)\n            (act_fn): ReLU(inplace=True)\n          )\n          (conv_1): ConvLayer(\n            (conv): Conv2d(512, 512, kernel_size=(3, 3), stride=(1, 1), padding=(1, 1), bias=False)\n            (bn): BatchNorm2d(512, eps=1e-05, momentum=0.1, affine=True, track_running_stats=True)\n          )\n        )\n        (act_fn): ReLU(inplace=True)\n      )\n    )\n  )\n  (head): Sequential(\n    (pool): AdaptiveAvgPool2d(output_size=1)\n    (flat): Flatten()\n    (fc): Linear(in_features=512, out_features=1000, bias=True)\n  )\n)\n</code></pre>\n<p>If you want to change model, just change constructor parameters.<br>\nLets create xresnet50.</p>\n<pre><code>model.expansion = 4\nmodel.layers = [3,4,6,3]\n</code></pre>\n<p>Now we can look at model body and if we call constructor - we have pytorch model!</p>\n<pre><code>model.body\n</code></pre>\n<pre><code>Sequential(\n  (l_0): Sequential(\n    (bl_0): ResBlock(\n      (convs): Sequential(\n        (conv_0): ConvLayer(\n          (conv): Conv2d(256, 64, kernel_size=(1, 1), stride=(1, 1), bias=False)\n          (bn): BatchNorm2d(64, eps=1e-05, momentum=0.1, affine=True, track_running_stats=True)\n          (act_fn): ReLU(inplace=True)\n        )\n        (conv_1): ConvLayer(\n          (conv): Conv2d(64, 64, kernel_size=(3, 3), stride=(1, 1), padding=(1, 1), bias=False)\n          (bn): BatchNorm2d(64, eps=1e-05, momentum=0.1, affine=True, track_running_stats=True)\n          (act_fn): ReLU(inplace=True)\n        )\n        (conv_2): ConvLayer(\n          (conv): Conv2d(64, 256, kernel_size=(1, 1), stride=(1, 1), bias=False)\n          (bn): BatchNorm2d(256, eps=1e-05, momentum=0.1, affine=True, track_running_stats=True)\n        )\n      )\n      (act_fn): ReLU(inplace=True)\n    )\n    (bl_1): ResBlock(\n      (convs): Sequential(\n        (conv_0): ConvLayer(\n          (conv): Conv2d(256, 64, kernel_size=(1, 1), stride=(1, 1), bias=False)\n          (bn): BatchNorm2d(64, eps=1e-05, momentum=0.1, affine=True, track_running_stats=True)\n          (act_fn): ReLU(inplace=True)\n        )\n        (conv_1): ConvLayer(\n          (conv): Conv2d(64, 64, kernel_size=(3, 3), stride=(1, 1), padding=(1, 1), bias=False)\n          (bn): BatchNorm2d(64, eps=1e-05, momentum=0.1, affine=True, track_running_stats=True)\n          (act_fn): ReLU(inplace=True)\n        )\n        (conv_2): ConvLayer(\n          (conv): Conv2d(64, 256, kernel_size=(1, 1), stride=(1, 1), bias=False)\n          (bn): BatchNorm2d(256, eps=1e-05, momentum=0.1, affine=True, track_running_stats=True)\n        )\n      )\n      (act_fn): ReLU(inplace=True)\n    )\n    (bl_2): ResBlock(\n      (convs): Sequential(\n        (conv_0): ConvLayer(\n          (conv): Conv2d(256, 64, kernel_size=(1, 1), stride=(1, 1), bias=False)\n          (bn): BatchNorm2d(64, eps=1e-05, momentum=0.1, affine=True, track_running_stats=True)\n          (act_fn): ReLU(inplace=True)\n        )\n        (conv_1): ConvLayer(\n          (conv): Conv2d(64, 64, kernel_size=(3, 3), stride=(1, 1), padding=(1, 1), bias=False)\n          (bn): BatchNorm2d(64, eps=1e-05, momentum=0.1, affine=True, track_running_stats=True)\n          (act_fn): ReLU(inplace=True)\n        )\n        (conv_2): ConvLayer(\n          (conv): Conv2d(64, 256, kernel_size=(1, 1), stride=(1, 1), bias=False)\n          (bn): BatchNorm2d(256, eps=1e-05, momentum=0.1, affine=True, track_running_stats=True)\n        )\n      )\n      (act_fn): ReLU(inplace=True)\n    )\n  )\n  (l_1): Sequential(\n    (bl_0): ResBlock(\n      (convs): Sequential(\n        (conv_0): ConvLayer(\n          (conv): Conv2d(256, 128, kernel_size=(1, 1), stride=(1, 1), bias=False)\n          (bn): BatchNorm2d(128, eps=1e-05, momentum=0.1, affine=True, track_running_stats=True)\n          (act_fn): ReLU(inplace=True)\n        )\n        (conv_1): ConvLayer(\n          (conv): Conv2d(128, 128, kernel_size=(3, 3), stride=(2, 2), padding=(1, 1), bias=False)\n          (bn): BatchNorm2d(128, eps=1e-05, momentum=0.1, affine=True, track_running_stats=True)\n          (act_fn): ReLU(inplace=True)\n        )\n        (conv_2): ConvLayer(\n          (conv): Conv2d(128, 512, kernel_size=(1, 1), stride=(1, 1), bias=False)\n          (bn): BatchNorm2d(512, eps=1e-05, momentum=0.1, affine=True, track_running_stats=True)\n        )\n      )\n      (pool): AvgPool2d(kernel_size=2, stride=2, padding=0)\n      (idconv): ConvLayer(\n        (conv): Conv2d(256, 512, kernel_size=(1, 1), stride=(1, 1), bias=False)\n        (bn): BatchNorm2d(512, eps=1e-05, momentum=0.1, affine=True, track_running_stats=True)\n      )\n      (act_fn): ReLU(inplace=True)\n    )\n    (bl_1): ResBlock(\n      (convs): Sequential(\n        (conv_0): ConvLayer(\n          (conv): Conv2d(512, 128, kernel_size=(1, 1), stride=(1, 1), bias=False)\n          (bn): BatchNorm2d(128, eps=1e-05, momentum=0.1, affine=True, track_running_stats=True)\n          (act_fn): ReLU(inplace=True)\n        )\n        (conv_1): ConvLayer(\n          (conv): Conv2d(128, 128, kernel_size=(3, 3), stride=(1, 1), padding=(1, 1), bias=False)\n          (bn): BatchNorm2d(128, eps=1e-05, momentum=0.1, affine=True, track_running_stats=True)\n          (act_fn): ReLU(inplace=True)\n        )\n        (conv_2): ConvLayer(\n          (conv): Conv2d(128, 512, kernel_size=(1, 1), stride=(1, 1), bias=False)\n          (bn): BatchNorm2d(512, eps=1e-05, momentum=0.1, affine=True, track_running_stats=True)\n        )\n      )\n      (act_fn): ReLU(inplace=True)\n    )\n    (bl_2): ResBlock(\n      (convs): Sequential(\n        (conv_0): ConvLayer(\n          (conv): Conv2d(512, 128, kernel_size=(1, 1), stride=(1, 1), bias=False)\n          (bn): BatchNorm2d(128, eps=1e-05, momentum=0.1, affine=True, track_running_stats=True)\n          (act_fn): ReLU(inplace=True)\n        )\n        (conv_1): ConvLayer(\n          (conv): Conv2d(128, 128, kernel_size=(3, 3), stride=(1, 1), padding=(1, 1), bias=False)\n          (bn): BatchNorm2d(128, eps=1e-05, momentum=0.1, affine=True, track_running_stats=True)\n          (act_fn): ReLU(inplace=True)\n        )\n        (conv_2): ConvLayer(\n          (conv): Conv2d(128, 512, kernel_size=(1, 1), stride=(1, 1), bias=False)\n          (bn): BatchNorm2d(512, eps=1e-05, momentum=0.1, affine=True, track_running_stats=True)\n        )\n      )\n      (act_fn): ReLU(inplace=True)\n    )\n    (bl_3): ResBlock(\n      (convs): Sequential(\n        (conv_0): ConvLayer(\n          (conv): Conv2d(512, 128, kernel_size=(1, 1), stride=(1, 1), bias=False)\n          (bn): BatchNorm2d(128, eps=1e-05, momentum=0.1, affine=True, track_running_stats=True)\n          (act_fn): ReLU(inplace=True)\n        )\n        (conv_1): ConvLayer(\n          (conv): Conv2d(128, 128, kernel_size=(3, 3), stride=(1, 1), padding=(1, 1), bias=False)\n          (bn): BatchNorm2d(128, eps=1e-05, momentum=0.1, affine=True, track_running_stats=True)\n          (act_fn): ReLU(inplace=True)\n        )\n        (conv_2): ConvLayer(\n          (conv): Conv2d(128, 512, kernel_size=(1, 1), stride=(1, 1), bias=False)\n          (bn): BatchNorm2d(512, eps=1e-05, momentum=0.1, affine=True, track_running_stats=True)\n        )\n      )\n      (act_fn): ReLU(inplace=True)\n    )\n  )\n  (l_2): Sequential(\n    (bl_0): ResBlock(\n      (convs): Sequential(\n        (conv_0): ConvLayer(\n          (conv): Conv2d(512, 256, kernel_size=(1, 1), stride=(1, 1), bias=False)\n          (bn): BatchNorm2d(256, eps=1e-05, momentum=0.1, affine=True, track_running_stats=True)\n          (act_fn): ReLU(inplace=True)\n        )\n        (conv_1): ConvLayer(\n          (conv): Conv2d(256, 256, kernel_size=(3, 3), stride=(2, 2), padding=(1, 1), bias=False)\n          (bn): BatchNorm2d(256, eps=1e-05, momentum=0.1, affine=True, track_running_stats=True)\n          (act_fn): ReLU(inplace=True)\n        )\n        (conv_2): ConvLayer(\n          (conv): Conv2d(256, 1024, kernel_size=(1, 1), stride=(1, 1), bias=False)\n          (bn): BatchNorm2d(1024, eps=1e-05, momentum=0.1, affine=True, track_running_stats=True)\n        )\n      )\n      (pool): AvgPool2d(kernel_size=2, stride=2, padding=0)\n      (idconv): ConvLayer(\n        (conv): Conv2d(512, 1024, kernel_size=(1, 1), stride=(1, 1), bias=False)\n        (bn): BatchNorm2d(1024, eps=1e-05, momentum=0.1, affine=True, track_running_stats=True)\n      )\n      (act_fn): ReLU(inplace=True)\n    )\n    (bl_1): ResBlock(\n      (convs): Sequential(\n        (conv_0): ConvLayer(\n          (conv): Conv2d(1024, 256, kernel_size=(1, 1), stride=(1, 1), bias=False)\n          (bn): BatchNorm2d(256, eps=1e-05, momentum=0.1, affine=True, track_running_stats=True)\n          (act_fn): ReLU(inplace=True)\n        )\n        (conv_1): ConvLayer(\n          (conv): Conv2d(256, 256, kernel_size=(3, 3), stride=(1, 1), padding=(1, 1), bias=False)\n          (bn): BatchNorm2d(256, eps=1e-05, momentum=0.1, affine=True, track_running_stats=True)\n          (act_fn): ReLU(inplace=True)\n        )\n        (conv_2): ConvLayer(\n          (conv): Conv2d(256, 1024, kernel_size=(1, 1), stride=(1, 1), bias=False)\n          (bn): BatchNorm2d(1024, eps=1e-05, momentum=0.1, affine=True, track_running_stats=True)\n        )\n      )\n      (act_fn): ReLU(inplace=True)\n    )\n    (bl_2): ResBlock(\n      (convs): Sequential(\n        (conv_0): ConvLayer(\n          (conv): Conv2d(1024, 256, kernel_size=(1, 1), stride=(1, 1), bias=False)\n          (bn): BatchNorm2d(256, eps=1e-05, momentum=0.1, affine=True, track_running_stats=True)\n          (act_fn): ReLU(inplace=True)\n        )\n        (conv_1): ConvLayer(\n          (conv): Conv2d(256, 256, kernel_size=(3, 3), stride=(1, 1), padding=(1, 1), bias=False)\n          (bn): BatchNorm2d(256, eps=1e-05, momentum=0.1, affine=True, track_running_stats=True)\n          (act_fn): ReLU(inplace=True)\n        )\n        (conv_2): ConvLayer(\n          (conv): Conv2d(256, 1024, kernel_size=(1, 1), stride=(1, 1), bias=False)\n          (bn): BatchNorm2d(1024, eps=1e-05, momentum=0.1, affine=True, track_running_stats=True)\n        )\n      )\n      (act_fn): ReLU(inplace=True)\n    )\n    (bl_3): ResBlock(\n      (convs): Sequential(\n        (conv_0): ConvLayer(\n          (conv): Conv2d(1024, 256, kernel_size=(1, 1), stride=(1, 1), bias=False)\n          (bn): BatchNorm2d(256, eps=1e-05, momentum=0.1, affine=True, track_running_stats=True)\n          (act_fn): ReLU(inplace=True)\n        )\n        (conv_1): ConvLayer(\n          (conv): Conv2d(256, 256, kernel_size=(3, 3), stride=(1, 1), padding=(1, 1), bias=False)\n          (bn): BatchNorm2d(256, eps=1e-05, momentum=0.1, affine=True, track_running_stats=True)\n          (act_fn): ReLU(inplace=True)\n        )\n        (conv_2): ConvLayer(\n          (conv): Conv2d(256, 1024, kernel_size=(1, 1), stride=(1, 1), bias=False)\n          (bn): BatchNorm2d(1024, eps=1e-05, momentum=0.1, affine=True, track_running_stats=True)\n        )\n      )\n      (act_fn): ReLU(inplace=True)\n    )\n    (bl_4): ResBlock(\n      (convs): Sequential(\n        (conv_0): ConvLayer(\n          (conv): Conv2d(1024, 256, kernel_size=(1, 1), stride=(1, 1), bias=False)\n          (bn): BatchNorm2d(256, eps=1e-05, momentum=0.1, affine=True, track_running_stats=True)\n          (act_fn): ReLU(inplace=True)\n        )\n        (conv_1): ConvLayer(\n          (conv): Conv2d(256, 256, kernel_size=(3, 3), stride=(1, 1), padding=(1, 1), bias=False)\n          (bn): BatchNorm2d(256, eps=1e-05, momentum=0.1, affine=True, track_running_stats=True)\n          (act_fn): ReLU(inplace=True)\n        )\n        (conv_2): ConvLayer(\n          (conv): Conv2d(256, 1024, kernel_size=(1, 1), stride=(1, 1), bias=False)\n          (bn): BatchNorm2d(1024, eps=1e-05, momentum=0.1, affine=True, track_running_stats=True)\n        )\n      )\n      (act_fn): ReLU(inplace=True)\n    )\n    (bl_5): ResBlock(\n      (convs): Sequential(\n        (conv_0): ConvLayer(\n          (conv): Conv2d(1024, 256, kernel_size=(1, 1), stride=(1, 1), bias=False)\n          (bn): BatchNorm2d(256, eps=1e-05, momentum=0.1, affine=True, track_running_stats=True)\n          (act_fn): ReLU(inplace=True)\n        )\n        (conv_1): ConvLayer(\n          (conv): Conv2d(256, 256, kernel_size=(3, 3), stride=(1, 1), padding=(1, 1), bias=False)\n          (bn): BatchNorm2d(256, eps=1e-05, momentum=0.1, affine=True, track_running_stats=True)\n          (act_fn): ReLU(inplace=True)\n        )\n        (conv_2): ConvLayer(\n          (conv): Conv2d(256, 1024, kernel_size=(1, 1), stride=(1, 1), bias=False)\n          (bn): BatchNorm2d(1024, eps=1e-05, momentum=0.1, affine=True, track_running_stats=True)\n        )\n      )\n      (act_fn): ReLU(inplace=True)\n    )\n  )\n  (l_3): Sequential(\n    (bl_0): ResBlock(\n      (convs): Sequential(\n        (conv_0): ConvLayer(\n          (conv): Conv2d(1024, 512, kernel_size=(1, 1), stride=(1, 1), bias=False)\n          (bn): BatchNorm2d(512, eps=1e-05, momentum=0.1, affine=True, track_running_stats=True)\n          (act_fn): ReLU(inplace=True)\n        )\n        (conv_1): ConvLayer(\n          (conv): Conv2d(512, 512, kernel_size=(3, 3), stride=(2, 2), padding=(1, 1), bias=False)\n          (bn): BatchNorm2d(512, eps=1e-05, momentum=0.1, affine=True, track_running_stats=True)\n          (act_fn): ReLU(inplace=True)\n        )\n        (conv_2): ConvLayer(\n          (conv): Conv2d(512, 2048, kernel_size=(1, 1), stride=(1, 1), bias=False)\n          (bn): BatchNorm2d(2048, eps=1e-05, momentum=0.1, affine=True, track_running_stats=True)\n        )\n      )\n      (pool): AvgPool2d(kernel_size=2, stride=2, padding=0)\n      (idconv): ConvLayer(\n        (conv): Conv2d(1024, 2048, kernel_size=(1, 1), stride=(1, 1), bias=False)\n        (bn): BatchNorm2d(2048, eps=1e-05, momentum=0.1, affine=True, track_running_stats=True)\n      )\n      (act_fn): ReLU(inplace=True)\n    )\n    (bl_1): ResBlock(\n      (convs): Sequential(\n        (conv_0): ConvLayer(\n          (conv): Conv2d(2048, 512, kernel_size=(1, 1), stride=(1, 1), bias=False)\n          (bn): BatchNorm2d(512, eps=1e-05, momentum=0.1, affine=True, track_running_stats=True)\n          (act_fn): ReLU(inplace=True)\n        )\n        (conv_1): ConvLayer(\n          (conv): Conv2d(512, 512, kernel_size=(3, 3), stride=(1, 1), padding=(1, 1), bias=False)\n          (bn): BatchNorm2d(512, eps=1e-05, momentum=0.1, affine=True, track_running_stats=True)\n          (act_fn): ReLU(inplace=True)\n        )\n        (conv_2): ConvLayer(\n          (conv): Conv2d(512, 2048, kernel_size=(1, 1), stride=(1, 1), bias=False)\n          (bn): BatchNorm2d(2048, eps=1e-05, momentum=0.1, affine=True, track_running_stats=True)\n        )\n      )\n      (act_fn): ReLU(inplace=True)\n    )\n    (bl_2): ResBlock(\n      (convs): Sequential(\n        (conv_0): ConvLayer(\n          (conv): Conv2d(2048, 512, kernel_size=(1, 1), stride=(1, 1), bias=False)\n          (bn): BatchNorm2d(512, eps=1e-05, momentum=0.1, affine=True, track_running_stats=True)\n          (act_fn): ReLU(inplace=True)\n        )\n        (conv_1): ConvLayer(\n          (conv): Conv2d(512, 512, kernel_size=(3, 3), stride=(1, 1), padding=(1, 1), bias=False)\n          (bn): BatchNorm2d(512, eps=1e-05, momentum=0.1, affine=True, track_running_stats=True)\n          (act_fn): ReLU(inplace=True)\n        )\n        (conv_2): ConvLayer(\n          (conv): Conv2d(512, 2048, kernel_size=(1, 1), stride=(1, 1), bias=False)\n          (bn): BatchNorm2d(2048, eps=1e-05, momentum=0.1, affine=True, track_running_stats=True)\n        )\n      )\n      (act_fn): ReLU(inplace=True)\n    )\n  )\n)\n</code></pre>\n<pre><code>model.block_szs\n</code></pre>\n<pre><code>[16, 64, 128, 256, 512]\n</code></pre>\n<h2>More modification.</h2>\n<p>Main purpose of this module - fast and easy modify model.\nAnd here is the link to more modification to beat Imagenet
…
>\n<pre><code>class Mish(nn.Module):\n    def __init__(self):\n        super().__init__()\n\n    def forward(self, x):  \n        return x *( torch.tanh(F.softplus(x))) \n</code></pre>\n<pre><code>mxresnet.expansion = 4\nmxresnet.layers = [3,4,6,3]\nmxresnet.act_fn = Mish()\nmxresnet.name = 'mxresnet50'\n</code></pre>\n<p>Now we have mxresnet50 constructor.<br>\nWe can inspect some parts of it.<br>\nAnd after call it we got model.</p>\n<pre><code>mxresnet\n</code></pre>\n<pre><code> constr mxresnet50\n</code></pre>\n<pre><code>mxresnet.stem.conv_1\n</code></pre>\n<pre><code>ConvLayer(\n  (conv): Conv2d(32, 64, kernel_size=(3, 3), stride=(1, 1), padding=(1, 1), bias=False)\n  (bn): BatchNorm2d(64, eps=1e-05, momentum=0.1, affine=True, track_running_stats=True)\n  (act_fn): Mish()\n)\n</code></pre>\n<pre><code>mxresnet.body.l_0.bl_0\n</code></pre>\n<pre><code>ResBlock(\n  (convs): Sequential(\n    (conv_0): ConvLayer(\n      (conv): Conv2d(64, 64, kernel_size=(1, 1), stride=(1, 1), bias=False)\n      (bn): BatchNorm2d(64, eps=1e-05, momentum=0.1, affine=True, track_running_stats=True)\n      (act_fn): Mish()\n    )\n    (conv_1): ConvLayer(\n      (conv): Conv2d(64, 64, kernel_size=(3, 3), stride=(1, 1), padding=(1, 1), bias=False)\n      (bn): BatchNorm2d(64, eps=1e-05, momentum=0.1, affine=True, track_running_stats=True)\n      (act_fn): Mish()\n    )\n    (conv_2): ConvLayer(\n      (conv): Conv2d(64, 256, kernel_size=(1, 1), stride=(1, 1), bias=False)\n      (bn): BatchNorm2d(256, eps=1e-05, momentum=0.1, affine=True, track_running_stats=True)\n    )\n  )\n  (idconv): ConvLayer(\n    (conv): Conv2d(64, 256, kernel_size=(1, 1), stride=(1, 1), bias=False)\n    (bn): BatchNorm2d(256, eps=1e-05, momentum=0.1, affine=True, track_running_stats=True)\n  )\n  (act_fn): Mish()\n)\n</code></pre>\n<p>Now lets change Resblock. NewResBlock (stiil not own name yet) is in lib from version 0.1.0</p>\n<pre><code>mxresnet.block = NewResBlock\n</code></pre>\n<p>That all. Let see what we have.</p>\n<pre><code>mxresnet.body.l_1.bl_0\n</code></pre>\n<pre><code>NewResBlock(\n  (reduce): AvgPool2d(kernel_size=2, stride=2, padding=0)\n  (convs): Sequential(\n    (conv_0): ConvLayer(\n      (conv): Conv2d(256, 128, kernel_size=(1, 1), stride=(1, 1), bias=False)\n      (bn): BatchNorm2d(128, eps=1e-05, momentum=0.1, affine=True, track_running_stats=True)\n      (act_fn): Mish()\n    )\n    (conv_1): ConvLayer(\n      (conv): Conv2d(128, 128, kernel_size=(3, 3), stride=(1, 1), padding=(1, 1), bias=False)\n      (bn): BatchNorm2d(128, eps=1e-05, momentum=0.1, affine=True, track_running_stats=True)\n      (act_fn): Mish()\n    )\n    (conv_2): ConvLayer(\n      (conv): Conv2d(128, 512, kernel_size=(1, 1), stride=(1, 1), bias=False)\n      (bn): BatchNorm2d(512, eps=1e-05, momentum=0.1, affine=True, track_running_stats=True)\n    )\n  )\n  (idconv): ConvLayer(\n    (conv): Conv2d(256, 512, kernel_size=(1, 1), stride=(1, 1), bias=False)\n    (bn): BatchNorm2d(512, eps=1e-05, momentum=0.1, affine=True, track_running_stats=True)\n  )\n  (merge): Mish()\n)\n</code></pre>\n<h1>Classic way</h1>\n<p>Usual way to get model - call constructor with parametrs.</p>\n<pre><code>from model_constructor.constructor import *\n</code></pre>\n<p>Default is resnet18.</p>\n<pre><code>model = Net()\n</code></pre>\n<p>You cant modify model after call constructor, so define 
…
rder etc. In v2 much powerfull realisation.</p>\n<pre><code>from model_constructor.xresnet import *\n</code></pre>\n<pre><code>model = xresnet50()\n</code></pre>\n<h2>Some examples.</h2>\n<p>We can experiment with models by changing some parts of model. Here only base functionality, but it can be easily extanded.</p>\n<p>Here is some examples:</p>\n<h3>Custom stem</h3>\n<p>Stem with 3 conv layers</p>\n<pre><code>model = Net(stem=partial(Stem, stem_sizes=[32, 32]))\n</code></pre>\n<pre><code>model.stem\n</code></pre>\n<pre><code>Stem(\n  sizes: [3, 32, 32, 64]\n  (conv_0): ConvLayer(\n    (conv): Conv2d(3, 32, kernel_size=(3, 3), stride=(2, 2), padding=(1, 1), bias=False)\n    (bn): BatchNorm2d(32, eps=1e-05, momentum=0.1, affine=True, track_running_stats=True)\n    (act_fn): ReLU(inplace=True)\n  )\n  (conv_1): ConvLayer(\n    (conv): Conv2d(32, 32, kernel_size=(3, 3), stride=(1, 1), padding=(1, 1), bias=False)\n    (bn): BatchNorm2d(32, eps=1e-05, momentum=0.1, affine=True, track_running_stats=True)\n    (act_fn): ReLU(inplace=True)\n  )\n  (conv_2): ConvLayer(\n    (conv): Conv2d(32, 64, kernel_size=(3, 3), stride=(1, 1), padding=(1, 1), bias=False)\n    (bn): BatchNorm2d(64, eps=1e-05, momentum=0.1, affine=True, track_running_stats=True)\n    (act_fn): ReLU(inplace=True)\n  )\n  (pool): MaxPool2d(kernel_size=3, stride=2, padding=1, dilation=1, ceil_mode=False)\n)\n</code></pre>\n<pre><code>model = Net(stem_sizes=[32, 64])\n</code></pre>\n<pre><code>model.stem\n</code></pre>\n<pre><code>Stem(\n  sizes: [3, 32, 64, 64]\n  (conv_0): ConvLayer(\n    (conv): Conv2d(3, 32, kernel_size=(3, 3), stride=(2, 2), padding=(1, 1), bias=False)\n    (bn): BatchNorm2d(32, eps=1e-05, momentum=0.1, affine=True, track_running_stats=True)\n    (act_fn): ReLU(inplace=True)\n  )\n  (conv_1): ConvLayer(\n    (conv): Conv2d(32, 64, kernel_size=(3, 3), stride=(1, 1), padding=(1, 1), bias=False)\n    (bn): BatchNorm2d(64, eps=1e-05, momentum=0.1, affine=True, track_running_stats=True)\n    (act_fn): ReLU(inplace=True)\n  )\n  (conv_2): ConvLayer(\n    (conv): Conv2d(64, 64, kernel_size=(3, 3), stride=(1, 1), padding=(1, 1), bias=False)\n    (bn): BatchNorm2d(64, eps=1e-05, momentum=0.1, affine=True, track_running_stats=True)\n    (act_fn): ReLU(inplace=True)\n  )\n  (pool): MaxPool2d(kernel_size=3, stride=2, padding=1, dilation=1, ceil_mode=False)\n)\n</code></pre>\n<h3>Activation function before Normalization</h3>\n<pre><code>model = Net(bn_1st=False)\n</code></pre>\n<pre><code>model.stem\n</code></pre>\n<pre><code>Stem(\n  sizes: [3, 64]\n  (conv_0): ConvLayer(\n    (conv): Conv2d(3, 64, kernel_size=(3, 3), stride=(2, 2), padding=(1, 1), bias=False)\n    (act_fn): ReLU(inplace=True)\n    (bn): BatchNorm2d(64, eps=1e-05, momentum=0.1, affine=True, track_running_stats=True)\n  )\n  (pool): MaxPool2d(kernel_size=3, stride=2, padding=1, dilation=1, ceil_mode=False)\n)\n</code></pre>\n<h3>Change activation function</h3>\n<pre><code>new_act_fn = nn.LeakyReLU(inplace=True)\n</code></pre>\n<pre><code>model = Net(act_fn=new_act_fn)\n</code></pre>\n<pre><code>model.stem\n</code></pre>\n<pre><code>Stem(\n  sizes: [3, 64]\n  (conv_0): ConvLayer(\n    (conv): Conv2d(3, 64, kernel_size=(3, 3), stride=(2, 2), padding=(1, 1), bias=False)\n    (bn): BatchNorm2d(64, eps=1e-05, momentum=0.1, affine=True, track_running_stats=True)\n    (act_fn): LeakyReLU(negative_slope=0.01, inplace=True)\n  )\n  (pool): MaxPool2d(kernel_size=3, stride=2, padding=1, dilation=1, ceil_mode=False)\n)\n</code></pre>\n<pre><code>model.body.layer_0.block_0\n</code></pre>\n<pre><code>BasicBlock(\n  (conv): Sequential(\n    (conv_0): ConvLayer(\n      (conv): Conv2d(64, 64, kernel_size=(3, 3), stride=(1, 1), padding=(1, 1), bias=False)\n      (bn): BatchNorm2d(64, eps=1e-05, momentum=0.1, affine=True, track_running_stats=True)\n      (act_fn): LeakyReLU(negative_slope=0.01, inplace=True)\n    )\n    (conv_1): ConvLayer(\n      (conv): Conv2d(64, 64, kernel_size=(3, 3), stride=(1, 1), padding=(1, 1), bias=False)\n      (bn): BatchNorm2d(64, eps=1e-05, momentum=0.1, affine=True, track_running_stats=True)\n    )\n  )\n  (merge): Noop()\n  (act_conn): LeakyReLU(negative_slope=0.01, inplace=True)\n)\n</code></pre>\n\n          </div>"}, "last_serial": 6755852, "releases": {"0.0.1": [{"comment_text": "", "digests": {"md5": "330ab3cc4bbfbdec8ac15f4e3c97dd97", "sha256": "44c19bf3c97dfbe4dbd91a1751548eb559f30df97409d77a048215a78ae05923"}
…
