…
n           {\n               'batch_size': 64,\n           },\n       ),\n       'dynamics': (\n           'Dynamics',\n           {\n               'batch_step': 4,\n               'grad_norm_max': None,\n           },\n       ),\n   }\n   DEBUG: harn.hyper = <netharn.hyperparams.HyperParams object at 0x7fb19b4b8748>\n   DEBUG: make XPU\n   DEBUG: harn.xpu = <XPU(GPU(0)) at 0x7fb12af24668>\n   DEBUG: Criterion: FocalLoss\n   DEBUG: Optimizer: SGD\n   DEBUG: Scheduler: ListedScheduler\n   DEBUG: Making loaders\n   DEBUG: Making model\n   DEBUG: ToyNet2d(\n     (layers): Sequential(\n       (0): Conv2d(1, 8, kernel_size=(3, 3), stride=(1, 1), padding=(1, 1), bias=False)\n       (1): BatchNorm2d(8, eps=1e-05, momentum=0.1, affine=True, track_running_stats=True)\n       (2): ReLU(inplace)\n       (3): Conv2d(8, 8, kernel_size=(3, 3), stride=(1, 1), padding=(1, 1), bias=False)\n       (4): BatchNorm2d(8, eps=1e-05, momentum=0.1, affine=True, track_running_stats=True)\n       (5): ReLU(inplace)\n       (6): Conv2d(8, 2, kernel_size=(3, 3), stride=(1, 1), padding=(1, 1), bias=False)\n     )\n     (softmax): Softmax()\n   )\n   INFO: Model has 824 parameters\n   INFO: Mounting ToyNet2d model on GPU(0)\n   DEBUG: Making initializer\n   DEBUG: Move FocalLoss() model to GPU(0)\n   DEBUG: Make optimizer\n   DEBUG: Make scheduler\n   DEBUG: Make monitor\n   DEBUG: Make dynamics\n   INFO: Exported model topology to
…
r': (\n        'torch.utils.data.dataloader.DataLoader',\n        {\n            'batch_size': 64,\n        },\n    ),\n    'dynamics': (\n        'Dynamics',\n        {\n            'batch_step': 4,\n            'grad_norm_max': None,\n        },\n    ),\n}\nDEBUG: harn.hyper = &lt;netharn.hyperparams.HyperParams object at 0x7fb19b4b8748&gt;\nDEBUG: make XPU\nDEBUG: harn.xpu = &lt;XPU(GPU(0)) at 0x7fb12af24668&gt;\nDEBUG: Criterion: FocalLoss\nDEBUG: Optimizer: SGD\nDEBUG: Scheduler: ListedScheduler\nDEBUG: Making loaders\nDEBUG: Making model\nDEBUG: ToyNet2d(\n  (layers): Sequential(\n    (0): Conv2d(1, 8, kernel_size=(3, 3), stride=(1, 1), padding=(1, 1), bias=False)\n    (1): BatchNorm2d(8, eps=1e-05, momentum=0.1, affine=True, track_running_stats=True)\n    (2): ReLU(inplace)\n    (3): Conv2d(8, 8, kernel_size=(3, 3), stride=(1, 1), padding=(1, 1), bias=False)\n    (4): BatchNorm2d(8, eps=1e-05, momentum=0.1, affine=True, track_running_stats=True)\n    (5): ReLU(inplace)\n    (6): Conv2d(8, 2, kernel_size=(3, 3), stride=(1, 1), padding=(1, 1), bias=False)\n  )\n  (softmax): Softmax()\n)\nINFO: Model has 824 parameters\nINFO: Mounting ToyNet2d model on GPU(0)\nDEBUG: Making initializer\nDEBUG: Move FocalLoss() model to GPU(0)\nDEBUG: Make optimizer\nDEBUG: Make scheduler\nDEBUG: Make monitor\nDEBUG: Make dynamics\nINFO: Exported model topology to /home/joncrall/.cache/netharn/demo/
…
