…
d, Huckleberry Finn, The Strange Case of Dr. Jekyll and Mr. Hyde, and the Iliad. These books totaled over 3,000,000 sequence examples for the network to learn. I used a 2 layer LSTM with over 200,000 weights and the following architecture...\n```\nModel: \"model_3\"\n__________________________________________________________________________________________________\nLayer (type)                    Output Shape         Param #     Connected to                     \n==================================================================================================\ninput_4 (InputLayer)            (None, 50, 1)        0                                            \n__________________________________________________________________________________________________\npermute_4 (Permute)             (None, 1, 50)        0           input_4[0][0]                    \n__________________________________________________________________________________________________\ndense_9 (Dense)                 (None, 1, 50)        2550        permute_4[0][0]                  \n__________________________________________________________________________________________________\nattention_prob (Permute)        (None, 50, 1)        0           dense_9[0][0]                    \n__________________________________________________________________________________________________\nmultiply_4 (Multiply)           (None, 50, 1)        0           input_4[0][0]                    \n                                                                 attention_prob[0][0]             \n__________________________________________________________________________________________________\nlstm_7 (LSTM)                   (None, 50, 128)      66560       multiply_4[0][0]                 \n__________________________________________________________________________________________________\ndropout_7 (Dropout)             (None, 50, 128)      0           lstm_7[0][0]                     \n__________________________________________________________________________________________________\nlstm_8 (LSTM)                   (None, 128)          131584      dropout_7[0][0]                  \n__________________________________________________________________________________________________\ndropout_8 (Dropout)             (None, 128)          0           lstm_8[0][0]                     \n__________________________________________________________________________________________________\ndense_10 (Dense)                (None, 100)          12900       dropout_8[0][0]                  \n__________________________________________________________________________________________________\ndense_11 (Dense)                (None, 70)           7070        dense_10[0][0]                   \n==================================================================================================\nTotal params: 220,664\nTrainable params: 220,664\nNon-trainable params: 0\n```\nThis network was EXTREMELY slow to train on my machine so I capped the number of epochs to about 35, which came out to around 40 hours.\n\nHere are a few input seeds, and the co
…
