…
(x, dim=1)\n\n\n# show input shape\nprint(summary(Net(), torch.zeros((1, 1, 28, 28)), show_input=True))\n\n# show output shape\nprint(summary(Net(), torch.zeros((1, 1, 28, 28)), show_input=False))\n\n# show output shape and hierarchical view of net\nprint(summary(Net(), torch.zeros((1, 1, 28, 28)), show_input=False, show_hierarchical=True))\n\n```\n\n```\n-----------------------------------------------------------------------\n      Layer (type)         Input Shape         Param #     Tr. Param #\n=======================================================================\n          Conv2d-1      [1, 1, 28, 28]             260             260\n          Conv2d-2     [1, 10, 12, 12]           5,020           5,020\n       Dropout2d-3       [1, 20, 8, 8]               0               0\n          Linear-4            [1, 320]          16,050          16,050\n          Linear-5             [1, 50]             510             510\n=======================================================================\nTotal params: 21,840\nTrainable params: 21,840\nNon-trainable params: 0\n-----------------------------------------------------------------------\n```\n```\n-----------------------------------------------------------------------\n      Layer (type)        Output Shape         Param #     Tr. Param #\n=======================================================================\n          Conv2d-1     [1, 10, 24, 24]             260             260\n          Conv2d-2       [1, 20, 8, 8]           5,020           5,020\n       Dropout2d-3       [1, 20, 8, 8]               0               0\n          Linear-4             [1, 50]          16,050          16,050\n          Linear-5             [1, 10]             510             510\n=======================================================================\nTotal params: 21,840\nTrainable params: 21,840\nNon-trainable params: 0\n-----------------------------------------------------------------------\n```\n```\n-----------------------------------------------------------------------\n      Layer (type)        Output Shape         Param #     Tr. Param #\n=======================================================================\n          Conv2d-1     [1, 10, 24, 24]             260             260\n          Conv2d-2       [1, 20, 8, 8]           5,020           5,020\n       Dropout2d-3       [1, 20, 8, 8]               0               0\n          Linear-4             [1, 50]          16,050          16,050\n          Linear-5             [1, 10]             510             510\n=======================================================================\nTotal params: 21,840\nTrainable params: 21,840\nNon-trainable params: 0\n-----------------------------------------------------------------------\n=========================== Hierarchical Summary ===========================\nNet(\n  (conv1): Conv2d(1, 10, kernel_size=(5, 5), stride=(1, 1)), 260 params\n  (con
…
======================================================================================\n```\n\n3) showing **layers until depth 2**\n```python\n# show layers until depth 2\npms.summary(model, enc_inputs, dec_inputs, max_depth=2, print_summary=True)\n```\n```\n-----------------------------------------------------------------------------------------------\n      Layer (type)                                Output Shape         Param #     Tr. Param #\n===============================================================================================\n       Embedding-1                                 [1, 5, 512]           3,072           3,072\n       Embedding-2                                 [1, 5, 512]           3,072               0\n    EncoderLayer-3                   [1, 5, 512], [1, 8, 5, 5]       2,887,680       2,887,680\n    EncoderLayer-4                   [1, 5, 512], [1, 8, 5, 5]       2,887,680       2,887,680\n    EncoderLayer-5                   [1, 5, 512], [1, 8, 5, 5]       2,887,680       2,887,680\n    EncoderLayer-6                   [1, 5, 512], [1, 8, 5, 5]       2,887,680       2,887,680\n    EncoderLayer-7                   [1, 5, 512], [1, 8, 5, 5]       2,887,680       2,887,680\n    EncoderLayer-8                   [1, 5, 512], [1, 8, 5, 5]       2,887,680       2,887,680\n       Embedding-9                                 [1, 5, 512]           3,584           3,584\n      Embedding-10                                 [1, 5, 512]           3,072               0\n   DecoderLayer-11     [1, 5, 512], [1, 8, 5, 5], [1, 8, 5, 5]       3,675,648       3,675,648\n   DecoderLayer-12     [1, 5, 512], [1, 8, 5, 5], [1, 8, 5, 5]       3,675,648       3,675,648\n   DecoderLayer-13     [1, 5, 512], [1, 8, 5, 5], [1, 8, 5, 5]       3,675,648       3,675,648\n   DecoderLayer-14     [1, 5, 512], [1, 8, 5, 5], [1, 8, 5, 5]       3,675,648       3,675,648\n   DecoderLayer-15     [1, 5, 512], [1, 8, 5, 5], [1, 8, 5, 5]       3,675,648       3,675,648\n   DecoderLayer-16     [1, 5, 512], [1, 8, 5, 5], [1, 8, 5, 5]       3,675,648       3,675,648\n         Linear-17                                   [1, 5, 7]           3,584           3,584\n===============================================================================================\nTotal params: 39,396,352\nTrainable params: 39,390,208\nNon-trainable params: 6,144\n-----------------------------------------------------------------------------------------------\n```\n\n4) showing **deepest layers**\n```python\n# show deepest layers\npms.summary(model, enc_inputs, dec_inputs, max_depth=None, print_summary=True)\n```\n```\n-----------------------------------------------------------------------\n      Layer (type)        Output Shape         Param #     Tr. Param #\n=======================================================================\n       Embedding-1         [1, 5, 512]           3,072           3,072\n       Embedding-2         [1, 5, 512]           3,072               0\n          Linear-3         [1, 5, 512]         262,656         262,656\n          Linear-4         [1, 5, 512]         262,656         262,656\n          Linear-5         [1, 5, 512]         262,656         262,656\n          Conv1d-6        [1, 2048, 5]       1,050,624       1,050,624\n          Conv1d-7         [1, 512, 5]       1,049,088       1,049,088\n          Linear-8         [1, 5, 512]         262,656         262,656\n          Linear-9         [1, 5, 512]         262,656         262,656\n         Linear-10         [1, 5, 512]         262,656         262,656\n         Conv1d-11        [1, 2048, 5]       1,050,624       1,050,624\n         Conv1d-12         [1, 512, 5]       1,049,088       1,049,088\n         Linear-13         [1, 5, 512]         262,656         262,656\n         Linear-14         [1, 5, 512]         262,656         262,656\n         Linear-15         [1, 5, 512]         262,656         262,656\n         Conv1d-16        [1, 2048, 5]       1,050,624       1,050,624\n         Conv1d-17         [1, 512, 5]       1,049,088       1,049,088\n         Linear-18         [1, 5, 512]         262,656         262,656\n         Linear-19         [1, 5, 512]         262,656         262,656\n         Linear-20         [1, 5, 512]         262,656         262,656\n         Conv1d-21        [1, 2048, 5]       1,050,624       1,050,624\n         Conv1d-22         [1, 512, 5]       1,049,088       1,049,088\n         Linear-23         [1, 5, 512]         262,656         262,656\n         Linear-24         [1, 5, 512]         262,656         262,656\n         Linear-25         [1, 5, 512]         262,656         262,656\n         Conv1d-26        [1, 2048, 5]       1,050,624       1,050,624\n         Conv1d-27         [1, 512, 5]       1,049,088       1,049,088\n         Linear-28         [1, 5, 512]         262,656         262,656\n         Linear-29         [1, 5, 512]         262,656         262,656\n         Linear-30         [1, 5, 512]         262,656         262,656\n         Conv1d-31        [1, 2048, 5]       1,050,624       1,050,624\n         Conv1d-32         [1, 512, 5]       1,049,088       1,049,088\n      Embedding-33         [1, 5, 512]           3,584           3,584\n      Embedding-34         [1, 5, 512]           3,072               0\n         Linear-35         [1, 5, 512]         262,656         262,656\n         Linear-36         [1, 5, 512]         262,656         262,656\n         Linear-37         [1, 5, 512]         262,656         262,656\n         Linear-38         [1, 5, 512]         262,656         262,656\n         Linear-39         [1, 5, 512]         262,656         262,656\n         Linear-40         [1, 5, 512]         262,656         262,656\n         Conv1d-41        [1, 2048, 5]       1,050,624       1,050,624\n         Conv1d-42         [1, 512, 5]       1,049,088       1,049,088\n         Linear-43         [1, 5, 512]         262,656         262,656\n         Linear-44         [1, 5, 512]         262,656         262,656\n         Linear-45         [1, 5, 512]         262,656         262,656\n         Linear-46         [1, 5, 512]         262,656         262,656\n         Linear-47         [1, 5, 512]         262,656         262,656\n         Linear-48         [1, 5, 512]         262,656         262,656\n         Conv1d-49        [1, 2048, 5]       1,050,624       1,050,624\n         Conv1d-50         [1, 512, 5]       1,049,088       1,049,088\n         Linear-51         [1, 5, 512]         262,656         262,656\n         Linear-52         [1, 5, 512]         262,656         262,656\n         Linear-53         [1, 5, 512]         262,656         262,656\n         Linear-54         [1, 5, 512]         262,656         262,656\n         Linear-55         [1, 5, 512]         262,656         262,656\n         Linear-56         [1, 5, 512]         262,656         262,656\n         Conv1d-57        [1, 2048, 5]       1,050,624       1,050,624\n         Conv1d-58         [1, 512, 5]       1,049,088       1,049,088\n         Linear-59         [1, 5, 512]         262,656         262,656\n         Linear-60         [1, 5, 512]         262,656         262,656\n         Linear-61         [1, 5, 512]         262,656         262,656\n         Linear-62         [1, 5, 512]         262,656         262,656\n         Linear-63         [1, 5, 512]         262,656         262,656\n         Linear-64         [1, 5, 512]         262,656         262,656\n         Conv1d-65        [1, 2048, 5]       1,050,624       1,050,624\n         Conv1d-66         [1, 512, 5]       1,049,088       1,049,088\n         Linear-67         [1, 5, 512]         262,656         262,656\n         Linear-68         [1, 5, 512]         262,656         262,656\n         Linear-69         [1, 5, 512]         262,656         262,656\n         Linear-70         [1, 5, 512]         262,656         262,656\n         Linear-71         [1, 5, 512]         262,656         262,656\n         Linear-72         [1, 5, 512]         262,656         262,656\n         Conv1d-73        [1, 2048, 5]       1,050,624       1,050,624\n         Conv1d-74         [1, 512, 5]       1,049,088       1,049,088\n         Linear-75         [1, 5, 512]         262,656         262,656\n         Linear-76         [1, 5, 512]         262,656         262,656\n         Linear-77         [1, 5, 512]         262,656         262,656\n         Linear-78         [1, 5, 512]         262,656         262,656\n         Linear-79         [1, 5, 512]         262,656         262,656\n         Linear-80         [1, 5, 512]         262,656         262,656\n         Conv1d-81        [1, 2048, 5]       1,050,624       1,050,624\n         Conv1d-82         [1, 512, 5]       1,049,088       1,049,088\n         Linear-83           [1, 5, 7]           3,584           3,584\n=======================================================================\nTotal params: 39,396,352\nTrainable params: 39,390,208\nNon-trainable params: 6,144\n-----------------------------------------------------------------------\n```\n\n5) showing **layers until depth 3** and adding column with **parent layers**\n```python\n# show layers until depth 3 and add column with parent layers\npms.summary(model, enc_inputs, dec_inputs, max_depth=3, show_parent_layers=True, print_summary=True)\n```\n```\n-----------------------------------------------------------------------------------------------------------------------------\n                      Parent Layers                Layer (type)                  Output Shape         Param #     Tr. Param #\n=============================================================================================================================\n                Transformer/Encoder                 Embedding-1                   [1, 5, 512]           3,072           3,072\n                Transformer/Encoder                 Embedding-2                   [1, 5, 512]           3,072               0\n   Transformer/Encoder/EncoderLayer        MultiHeadAttention-3     [1, 5, 512], [1, 8, 5, 5]         787,968         787,968\n   Transformer/Encoder/EncoderLayer     PoswiseFeedForwardNet-4                   [1, 5, 512]       2,099,712       2,099,712\n   Transformer/Encoder/EncoderLayer        MultiHeadAttention-5     [1, 5, 512], [1, 8, 5, 5]         787,968         787,968\n   Transformer/Encoder/EncoderLayer     PoswiseFeedForwardNet-6                   [1, 5, 512]       2,099,712       2,099,712\n   Transformer/Encoder/EncoderLayer        MultiHeadAttention-7     [1, 5, 512], [1, 8, 5, 5]         787,968         787,968\n   Transformer/Encoder/EncoderLayer     PoswiseFeedForwardNet-8                   [1, 5, 512]       2,099,712       2,099,712\n   Transformer/Encoder/EncoderLayer        MultiHeadAttention-9     [1, 5, 512], [1, 8, 5, 5]         787,968         787,968\n   Transformer/Encoder/EncoderLayer    PoswiseFeedForwardNet-10                   [1, 5, 512]       2,099,712       2,099,712\n   Transformer/Encoder/EncoderLayer       MultiHeadAttention-11     [1, 5, 512], [1, 8, 5, 5]         787,968         787,968\n   Transformer/Encoder/EncoderLayer    PoswiseFeedForwardNet-12                   [1, 5, 512]       2,099,712       2,099,712\n   Transformer/Encoder/EncoderLayer       MultiHeadAttention-13     [1, 5, 512], [1, 8, 5, 5]         787,968         787,968\n   Transformer/Encoder/EncoderLayer    PoswiseFeedForwardNet-14                   [1, 5, 512]       2,099,712       2,099,712\n                Transformer/Decoder                Embedding-15                   [1, 5, 512]           3,584           3,584\n                Transformer/Decoder                Embedding-16                   [1, 5, 512]           3,072               0\n   Transformer/Decoder/DecoderLayer       MultiHeadAttention-17     [1, 5, 512], [1, 8, 5, 5]         787,968         787,968\n   Transformer/Decoder/DecoderLayer       MultiHeadAttention-18     [1, 5, 512], [1, 8, 5, 5]         787,968         787,968\n   Transformer/Decoder/DecoderLayer    PoswiseFeedForwardNet-19                   [1, 5, 512]       2,099,712       2,099,712\n   Transformer/Decoder/DecoderLayer       MultiHeadAttention-20     [1, 5, 512], [1, 8, 5, 5]         787,968         787,968\n   Transformer/Decoder/DecoderLayer       MultiHeadAttention-21     [1, 5, 512], [1, 8, 5, 5]         787,968         787,968\n   Transformer/Decoder/DecoderLayer    PoswiseFeedForwardNet-22                   [1, 5, 512]       2,099,712       2,099,712\n   Transformer/Decoder/DecoderLayer       MultiHeadAttention-23     [1, 5, 512], [1, 8, 5, 5]         787,968         787,968\n   Transformer/Decoder/DecoderLayer       MultiHeadAttention-24     [1, 5, 512], [1, 8, 5, 5]         787,968         787,968\n   Transformer/Decoder/DecoderLayer    PoswiseFeedForwardNet-25                   [1, 5, 512]       2,099,712       2,099,712\n   Transformer/Decoder/DecoderLayer       MultiHeadAttention-26     [1, 5, 512], [1, 8, 5, 5]         787,968         787,968\n   Transformer/Decoder/DecoderLayer       MultiHeadAttention-27     [1, 5, 512], [1, 8, 5, 5]         787,968         787,968\n   Transformer/Decoder/DecoderLayer    PoswiseFeedForwardNet-28                   [1, 5, 512]       2,099,712       2,099,712\n   Transformer/Decoder/DecoderLayer       MultiHeadAttention-29     [1, 5, 512], [1, 8, 5, 5]         787,968         787,968\n   Transformer/Decoder/DecoderLayer       MultiHeadAttention-30     [1, 5, 512], [1, 8, 5, 5]         787,968         787,968\n   Transformer/Decoder/DecoderLayer    PoswiseFeedForwardNet-31                   [1, 5, 512]       2,099,712       2,099,712\n   Transformer/Decoder/DecoderLayer       MultiHeadAttention-32     [1, 5, 512], [1, 8, 5, 5]         787,968         787,968\n   Transformer/Decoder/DecoderLayer       MultiHeadAttention-33     [1, 5, 512], [1, 8, 5, 5]         787,968         787,968\n   Transformer/Decoder/DecoderLayer    PoswiseFeedForwardNet-34                   [1, 5, 512]       2,099,712       2,099,712\n                        Transformer                   Linear-35                     [1, 5, 7]           3,584           3,584\n=============================================================================================================================\nTotal params: 39,396,352\nTrainable params: 39,390,208\nNon-trainable params: 6,144\n-----------------------------------------------------------------------------------------------------------------------------\n```\n\n\n## Reference\n\n```python\ncode_re
…
an> <span class=\"n\">max_depth</span><span class=\"o\">=</span><span class=\"mi\">2</span><span class=\"p\">,</span> <span class=\"n\">print_summary</span><span class=\"o\">=</span><span class=\"kc\">True</span><span class=\"p\">)</span>\n</pre>\n<pre><code>-----------------------------------------------------------------------------------------------\n      Layer (type)                                Output Shape         Param #     Tr. Param #\n===============================================================================================\n       Embedding-1                                 [1, 5, 512]           3,072           3,072\n       Embedding-2                                 [1, 5, 512]           3,072               0\n    EncoderLayer-3                   [1, 5, 512], [1, 8, 5, 5]       2,887,680       2,887,680\n    EncoderLayer-4                   [1, 5, 512], [1, 8, 5, 5]       2,887,680       2,887,680\n    EncoderLayer-5                   [1, 5, 512], [1, 8, 5, 5]       2,887,680       2,887,680\n    EncoderLayer-6                   [1, 5, 512], [1, 8, 5, 5]       2,887,680       2,887,680\n    EncoderLayer-7                   [1, 5, 512], [1, 8, 5, 5]       2,887,680       2,887,680\n    EncoderLayer-8                   [1, 5, 512], [1, 8, 5, 5]       2,887,680       2,887,680\n       Embedding-9                                 [1, 5, 512]           3,584           3,584\n      Embedding-10                                 [1, 5, 512]           3,072               0\n   DecoderLayer-11     [1, 5, 512], [1, 8, 5, 5], [1, 8, 5, 5]       3,675,648       3,675,648\n   DecoderLayer-12     [1, 5, 512], [1, 8, 5, 5], [1, 8, 5, 5]       3,675,648       3,675,648\n   DecoderLayer-13     [1, 5, 512], [1, 8, 5, 5], [1, 8, 5, 5]       3,675,648       3,675,648\n   DecoderLayer-14     [1, 5, 512], [1, 8, 5, 5], [1, 8, 5, 5]       3,675,648       3,675,648\n   DecoderLayer-15     [1, 5, 512], [1, 8, 5, 5], [1, 8, 5, 5]       3,675,648       3,675,648\n   DecoderLayer-16     [1, 5, 512], [1, 8, 5, 5], [1, 8, 5, 5]       3,675,648       3,675,648\n         Linear-17                                   [1, 5, 7]           3,584           3,584\n===============================================================================================\nTotal params: 39,396,352\nTrainable params: 39,390,208\nNon-trainable params: 6,144\n-----------------------------------------------------------------------------------------------\n</code></pre>\n<ol>\n<li>showing <strong>deepest layers</strong></li>\n</ol>\n<pre><span class=\"c1\">#
…
s</span><span class=\"p\">,</span> <span class=\"n\">dec_inputs</span><span class=\"p\">,</span> <span class=\"n\">max_depth</span><span class=\"o\">=</span><span class=\"kc\">None</span><span class=\"p\">,</span> <span class=\"n\">print_summary</span><span class=\"o\">=</span><span class=\"kc\">True</span><span class=\"p\">)</span>\n</pre>\n<pre><code>-----------------------------------------------------------------------\n      Layer (type)        Output Shape         Param #     Tr. Param #\n=======================================================================\n       Embedding-1         [1, 5, 512]           3,072           3,072\n       Embedding-2         [1, 5, 512]           3,072               0\n          Linear-3         [1, 5, 512]         262,656         262,656\n          Linear-4         [1, 5, 512]         262,656         262,656\n          Linear-5         [1, 5, 512]         262,656         262,656\n          Conv1d-6        [1, 2048, 5]       1,050,624       1,050,624\n          Conv1d-7         [1, 512, 5]       1,049,088       1,049,088\n          Linear-8         [1, 5, 512]         262,656         262,656\n          Linear-9         [1, 5, 512]         262,656         262,656\n         Linear-10         [1, 5, 512]         262,656         262,656\n         Conv1d-11        [1, 2048, 5]       1,050,624       1,050,624\n         Conv1d-12         [1, 512, 5]       1,049,088       1,049,088\n         Linear-13         [1, 5, 512]         262,656         262,656\n         Linear-14         [1, 5, 512]         262,656         262,656\n         Linear-15         [1, 5, 512]         262,656         262,656\n         Conv1d-16        [1, 2048, 5]       1,050,624       1,050,624\n         Conv1d-17         [1, 512, 5]       1,049,088       1,049,088\n         Linear-18         [1, 5, 512]         262,656         262,656\n         Linear-19         [1, 5, 512]         262,656         262,656\n         Linear-20         [1, 5, 512]         262,656         262,656\n         Conv1d-21        [1, 2048, 5]       1,050,624       1,050,624\n         Conv1d-22         [1, 512, 5]       1,049,088       1,049,088\n         Linear-23         [1, 5, 512]         262,656         262,656\n         Linear-24         [1, 5, 512]         262,656         262,656\n         Linear-25         [1, 5, 512]         262,656         262,656\n         Conv1d-26        [1, 2048, 5]       1,050,624       1,050,624\n         Conv1d-27         [1, 512, 5]       1,049,088       1,049,088\n         Linear-28         [1, 5, 512]         262,656         262,656\n         Linear-29         [1, 5, 512]         262,656         262,656\n         Linear-30         [1, 5, 512]         262,656         262,656\n         Conv1d-31        [1, 2048, 5]       1,050,624       1,050,624\n         Conv1d-32         [1, 512, 5]       1,049,088       1,049,088\n      Embedding-33         [1, 5, 512]           3,584           3,584\n      Embedding-34         [1, 5, 512]           3,072               0\n         Linear-35         [1, 5, 512]         262,656         262,656\n         Linear-36         [1, 5, 512]         262,656         262,656\n         Linear-37         [1, 5, 512]         262,656         262,656\n         Linear-38         [1, 5, 512]         262,656         262,656\n         Linear-39         [1, 5, 512]         262,656         262,656\n         Linear-40         [1, 5, 512]         262,656         262,656\n         Conv1d-41        [1, 2048, 5]       1,050,624       1,050,624\n         Conv1d-42         [1, 512, 5]       1,049,088       1,049,088\n         Linear-43         [1, 5, 512]         262,656         262,656\n         Linear-44         [1, 5, 512]         262,656         262,656\n         Linear-45         [1, 5, 512]         262,656         262,656\n         Linear-46         [1, 5, 512]         262,656         262,656\n         Linear-47         [1, 5, 512]         262,656         262,656\n         Linear-48         [1, 5, 512]         262,656         262,656\n         Conv1d-49        [1, 2048, 5]       1,050,624       1,050,624\n         Conv1d-50         [1, 512, 5]       1,049,088       1,049,088\n         Linear-51         [1, 5, 512]         262,656         262,656\n         Linear-52         [1, 5, 512]         262,656         262,656\n         Linear-53         [1, 5, 512]         262,656         262,656\n         Linear-54         [1, 5, 512]         262,656         262,656\n         Linear-55         [1, 5, 512]         262,656         262,656\n         Linear-56         [1, 5, 512]         262,656         262,656\n         Conv1d-57        [1, 2048, 5]       1,050,624       1,050,624\n         Conv1d-58         [1, 512, 5]       1,049,088       1,049,088\n         Linear-59         [1, 5, 512]         262,656         262,656\n         Linear-60         [1, 5, 512]         262,656         262,656\n         Linear-61         [1, 5, 512]         262,656         262,656\n         Linear-62         [1, 5, 512]         262,656         262,656\n         Linear-63         [1, 5, 512]         262,656         262,656\n         Linear-64         [1, 5, 512]         262,656         262,656\n         Conv1d-65        [1, 2048, 5]       1,050,624       1,050,624\n         Conv1d-66         [1, 512, 5]       1,049,088       1,049,088\n         Linear-67         [1, 5, 512]         262,656         262,656\n         Linear-68         [1, 5, 512]         262,656         262,656\n         Linear-69         [1, 5, 512]         262,656         262,656\n         Linear-70         [1, 5, 512]         262,656         262,656\n         Linear-71         [1, 5, 512]         262,656         262,656\n         Linear-72         [1, 5, 512]         262,656         262,656\n         Conv1d-73        [1, 2048, 5]       1,050,624       1,050,624\n         Conv1d-74         [1, 512, 5]       1,049,088       1,049,088\n         Linear-75         [1, 5, 512]         262,656         262,656\n         Linear-76         [1, 5, 512]         262,656         262,656\n         Linear-77         [1, 5, 512]         262,656         262,656\n         Linear-78         [1, 5, 512]         262,656         262,656\n         Linear-79         [1, 5, 512]         262,656         262,656\n         Linear-80         [1, 5, 512]         262,656         262,656\n         Conv1d-81        [1, 2048, 5]       1,050,624       1,050,624\n         Conv1d-82         [1, 512, 5]       1,049,088       1,049,088\n         Linear-83           [1, 5, 7]           3,584           3,584\n=======================================================================\nTotal params: 39,396,352\nTrainable params: 39,390,208\nNon-trainable params: 6,144\n-----------------------------------------------------------------------\n</code></pre>\n<ol>\n<li>showing <strong>layers until depth 3</strong> and adding column with <strong>parent layers</strong></li>\n</ol>\n<pre><span cl
…
