…
   x = self.fc3(x)\n            return x\n\n        def num_flat_features(self, x):\n            size = x.size()[1:]\n            num_features = 1\n            for s in size:\n                num_features *= s\n            return num_features\n\n\n      net = SimpleNet()\n      ti.summary(net, (1, 32, 32))\n\n\nWill produce following output:\n\n.. code::\n\n   ----------------------------------------------------------------\n           Layer (type)               Output Shape         Param #\n   ================================================================\n               Conv2d-1           [100, 6, 30, 30]              60\n               Conv2d-2          [100, 16, 13, 13]             880\n               Linear-3                 [100, 120]          69,240\n               Linear-4                  [100, 84]          10,164\n               Linear-5                  [100, 10]             850\n   ================================================================\n   Total params: 81,194\n   Trainable params: 81,194\n   Non-trainable params: 0\n   ----------------------------------------------------------------\n   Input size (MB): 0.39\n   Forward/backward pass size (MB): 6.35\n   Params size (MB): 0.31\n   Estimated Total Size (MB): 7.05\n   --------------------------------------------
…
