…
F.max_pool2d(self.conv1(x), 2))\n        x = F.relu(F.max_pool2d(self.conv2_drop(self.conv2(x)), 2))\n        x = x.view(-1, 320)\n        x = F.relu(self.fc1(x))\n        x = self.fc2(x)\n        return F.log_softmax(x, dim=1)\n\n\nmodel = CNN()\nsummary(model, (1, 28, 28))\n```\n\n```\n------------------------------------------------------------------------------------------\nLayer (type:depth-idx)                   Output Shape              Param #\n==========================================================================================\n\u251c\u2500Conv2d: 1-1                            [-1, 10, 24, 24]          260\n\u251c\u2500Conv2d: 1-2                            [-1, 20, 8, 8]            5,020\n\u251c\u2500Dropout2d: 1-3                         [-1, 20, 8, 8]            --\n\u251c\u2500Linear: 1-4                            [-1, 50]                  16,050\n\u251c\u2500Linear: 1-5                            [-1, 10]                  510\n==========================================================================================\nTotal params: 21,840\nTrainable params: 21,840\nNon-trainable params: 0\n------------------------------------------------------------------------------------------\nInput size (MB): 0.00\nForward/backward pass size (MB): 0.05\nParams size (MB): 0.08\nEstimated Total Size (MB): 0.14\n----------------------
…
nEstimated Total Size (MB): 15.46\n--------------------------------------------------------------------------------------------------------\n```\n\n\n## ResNet\n\n```python\nimport torchvision\n\nmodel = torchvision.models.resnet50()\nsummary(model, (3, 224, 224), depth=3)\n```\n\n\n```\n------------------------------------------------------------------------------------------\nLayer (type:depth-idx)                   Output Shape              Param #\n==========================================================================================\n\u251c\u2500Conv2d: 1-1                            [-1, 64, 112, 112]        9,408\n\u251c\u2500BatchNorm2d: 1-2                       [-1, 64, 112, 112]        128\n\u251c\u2500ReLU: 1-3                              [-1, 64, 112, 112]        --\n\u251c\u2500MaxPool2d: 1-4                         [-1, 64, 56, 56]          --\n\u251c\u2500Sequential: 1-5                        [-1, 256, 56, 56]         --\n|    \u2514\u2500Bottleneck: 2-1                   [-1, 256, 56, 56]         --\n|    |    \u2514\u2500Conv2d: 3-1                  [-1, 64, 56, 56]          4,096\n|    |    \u2514\u2500BatchNorm2d: 3-2             [-1, 64, 56, 56]          128\n|    |    \u2514\u2500ReLU: 3-3                    [-1, 64, 56, 56]          --\n|    |    \u2514\u2500Conv2d: 3-4                  [-1, 64, 56, 56]          36,864\n|    |    \u2514\u2500BatchNorm2d: 3-5             [-1, 64, 56, 56]          128\n|    |    \u2514\u2500ReLU: 3-6                    [-1, 64, 56, 56]          --\n|    |    \u2514\u2500Conv2d: 3-7                  [-1, 256, 56, 56]         16,384\n|    |    \u2514\u2500BatchNorm2d: 3-8             [-1, 256, 56, 56]         512\n|    |    \u2514\u2500Sequential: 3-9              [-1, 256, 56, 56]         --\n|    |    \u2514\u2500ReLU: 3-10                   [-1, 256, 56, 56]         --\n\n  ...\n  ...\n  ...\n\n\u251c\u2500AdaptiveAvgPool2d: 1-9                 [-1, 2048, 1, 1]          --\n\u251c\u2500Linear: 1-10                           [-1, 1000]                2,049,000\n==========================================================================================\nTotal params: 60,192,808\nTrainable params: 60,192,808\nNon-trainable params: 0\n------------------------------------------------------------------------------------------\nInput size (MB): 0.57\nForward/backward pass size (MB): 344.16\nParams size (MB): 229.62\nEstimated Total Size (MB): 574.35\n------------------------------------------------------------------------------------------\n\n\n```\n\n\n# Other Examples\n```\n----------------------------------------------------------------\n        Layer (type)               Output Shape         Param #\n================================================================\n            Conv2d-1            [-1, 1, 16, 16]              10\n              ReLU-2            [-1, 1, 16, 16]               0\n            Conv2d-3            [-1, 1, 28, 28]              10\n              ReLU-4            [-1, 1, 28, 28]               0\n================================================================\nTotal params: 20\nTrainable params: 20\nNon-trainable params: 0\n----------------------------------------------------------------\nInput size (MB): 0.77\nForward/backward pass size (MB): 0.02\nParams size (MB): 0.00\nEstimated Total Size (MB): 0.78\n----------------------------------------------------------------\n```\n\n# Referen
…
