…
tectures, you can use a maximum depth of display as follows:\n\n```python\nfrom torchvision.models import densenet121\nfrom torchscan import summary\n\nmodel = densenet121().eval().cuda()\nsummary(model, (3, 224, 224), max_depth=2)\n```\n\nwhich would yield\n\n```shell\n__________________________________________________________________________________________\nLayer                        Type                  Output Shape              Param #        \n==========================================================================================\ndensenet                     DenseNet              (-1, 1000)                0              \n\u251c\u2500features                   Sequential            (-1, 1024, 7, 7)          0              \n|    \u2514\u2500conv0                 Conv2d                (-1, 64, 112, 112)        9,408          \n|    \u2514\u2500norm0                 BatchNorm2d           (-1, 64, 112, 112)        257            \n|    \u2514\u2500relu0                 ReLU                  (-1, 64, 112, 112)        0              \n|    \u2514\u2500pool0                 MaxPool2d             (-1, 64, 56, 56)          0              \n|    \u2514\u2500denseblock1           _DenseBlock           (-1, 256, 56, 56)         338,316        \n|    \u2514\u2500transition1           _Transition           (-1, 128, 28, 28)         33,793         \n|    \u2514\u2500denseblock2           _DenseBlock           (-1, 512, 28, 28)         930,072        \n|    \u2514\u2500transition2           _Transition           (-1, 256, 14, 14)         133,121        \n|    \u2514\u2500denseblock3           _DenseBlock           (-1, 1024, 14, 14)        2,873,904      \n|    \u2514\u2500transition3           _Transition           (-1, 512, 7, 7)           528,385        \n|    \u2514\u2500denseblock4           _DenseBlock           (-1, 1024, 7, 7)          2,186,272      \n|    \u2514\u2500norm5                 BatchNorm2d           (-1, 1024, 7, 7)          4,097          \n\u251c\u2500classifier                 Linear                (-1, 1000)                1,025,000      \n==========================================================================================\nTrainable params: 7,978,856\nNon-trainable params: 0\nTotal params: 7,978,856\n------------------------------------------------------------------------------------------\nModel size (params + buffers): 30.76 Mb\nFramework & CUDA overhead: 423.57 Mb\nTotal RAM usage: 454.32 Mb\n----------------------
…
